…
W1109 23:04:56.504778  7692 upgrade_proto.cpp:72] Note that future Caffe releases will only support input layers and not input fields.
I1109 23:04:56.505775  7692 net.cpp:51] Initializing net from parameters: 
name: "ResNet-50 Joint Location HeatMap Prediction With Implicit Proxy Predictions at 4d, 5a with l2 loss and no striding in level 5. There are more features available at later layers, and the learning rate multipliers are lower. Also with residual summations coming from 3d and 4e"
state {
  phase: TEST
  level: 0
}
layer {
  name: "input"
  type: "Input"
  top: "data"
  input_param {
    shape {
      dim: 1
      dim: 3
      dim: 512
      dim: 320
    }
  }
}
layer {
  name: "ConvNd1"
  type: "Convolution"
  bottom: "data"
  top: "BatchNorm2"
  convolution_param {
    num_output: 32
    bias_term: true
    stride: 2
    weight_filler {
      type: "xavier"
    }
    pad_h: 1
    pad_w: 1
    kernel_h: 3
    kernel_w: 3
    engine: CAFFE
    dilation: 1
  }
}
layer {
  name: "Threshold3"
  type: "ReLU"
  bottom: "BatchNorm2"
  top: "BatchNorm2"
}
layer {
  name: "ConvNd4"
  type: "Convolution"
  bottom: "BatchNorm2"
  top: "BatchNorm5"
  convolution_param {
    num_output: 64
    bias_term: true
    group: 1
    stride: 2
    weight_filler {
      type: "xavier"
    }
    pad_h: 1
    pad_w: 1
    kernel_h: 3
    kernel_w: 3
    engine: CAFFE
    dilation: 1
  }
}
layer {
  name: "Threshold8"
  type: "ReLU"
  bottom: "BatchNorm5"
  top: "BatchNorm5_"
}
layer {
  name: "ConvNd9"
  type: "Convolution"
  bottom: "BatchNorm5_"
  top: "BatchNorm10"
  convolution_param {
    num_output: 64
    bias_term: true
    stride: 1
    weight_filler {
      type: "xavier"
    }
    pad_h: 0
    pad_w: 0
    kernel_h: 1
    kernel_w: 1
    engine: CAFFE
    dilation: 1
  }
}
layer {
  name: "Threshold11"
  type: "ReLU"
  bottom: "BatchNorm10"
  top: "BatchNorm10"
}
layer {
  name: "ConvNd12"
  type: "Convolution"
  bottom: "BatchNorm10"
  top: "BatchNorm13"
  convolution_param {
    num_output: 32
    bias_term: true
    pad: 1
    group: 1
    stride: 1
    weight_filler {
      type: "xavier"
    }
    kernel_h: 3
    kernel_w: 3
    engine: CAFFE
  }
}
layer {
  name: "Threshold17"
  type: "ReLU"
  bottom: "BatchNorm13"
  top: "BatchNorm13_"
}
layer {
  name: "ConvNd18"
  type: "Convolution"
  bottom: "BatchNorm13_"
  top: "BatchNorm19"
  convolution_param {
    num_output: 64
    bias_term: true
    stride: 1
    weight_filler {
      type: "xavier"
    }
    pad_h: 0
    pad_w: 0
    kernel_h: 1
    kernel_w: 1
    engine: CAFFE
    dilation: 1
  }
}
layer {
  name: "Threshold20"
  type: "ReLU"
  bottom: "BatchNorm19"
  top: "BatchNorm19"
}
layer {
  name: "ConvNd21"
  type: "Convolution"
  bottom: "BatchNorm19"
  top: "BatchNorm22"
  convolution_param {
    num_output: 32
    bias_term: true
    pad: 1
    group: 1
    stride: 1
    weight_filler {
      type: "xavier"
    }
    kernel_h: 3
    kernel_w: 3
    engine: CAFFE
  }
}
layer {
  name: "Threshold26"
  type: "ReLU"
  bottom: "BatchNorm22"
  top: "BatchNorm25_"
}
layer {
  name: "Concat24"
  type: "Concat"
  bottom: "BatchNorm5_"
  bottom: "BatchNorm13_"
  bottom: "BatchNorm25_"
  top: "Concat24"
  concat_param {
    axis: 1
  }
}
layer {
  name: "ConvNd27"
  type: "Convolution"
  bottom: "Concat24"
  top: "BatchNorm28"
  convolution_param {
    num_output: 64
    bias_term: true
    stride: 1
    weight_filler {
      type: "xavier"
    }
    pad_h: 0
    pad_w: 0
    kernel_h: 1
    kernel_w: 1
    engine: CAFFE
    dilation: 1
  }
}
layer {
  name: "Threshold28_"
  type: "ReLU"
  bottom: "BatchNorm28"
  top: "BatchNorm28"
}
layer {
  name: "ConvNd4_2"
  type: "Convolution"
  bottom: "BatchNorm28"
  top: "BatchNorm5_2"
  convolution_param {
    num_output: 64
    bias_term: true
    group: 1
    stride: 1
    weight_filler {
      type: "xavier"
    }
    pad_h: 1
    pad_w: 1
    kernel_h: 3
    kernel_w: 3
    engine: CAFFE
    dilation: 1
  }
}
layer {
  name: "Threshold8_2"
  type: "ReLU"
  bottom: "BatchNorm5_2"
  top: "BatchNorm5_2"
}
layer {
  name: "ConvNd9_2"
  type: "Convolution"
  bottom: "BatchNorm5_2"
  top: "BatchNorm10_2"
  convolution_param {
    num_output: 64
    bias_term: true
    stride: 1
    weight_filler {
      type: "xavier"
    }
    pad_h: 0
    pad_w: 0
    kernel_h: 1
    kernel_w: 1
    engine: CAFFE
    dilation: 1
  }
}
layer {
  name: "Threshold11_2"
  type: "ReLU"
  bottom: "BatchNorm10_2"
  top: "BatchNorm10_2"
}
layer {
  name: "ConvNd12_2"
  type: "Convolution"
  bottom: "BatchNorm10_2"
  top: "BatchNorm13_2"
  convolution_param {
    num_output: 32
    bias_term: true
    pad: 1
    group: 1
    stride: 1
    weight_filler {
      type: "xavier"
    }
    kernel_h: 3
    kernel_w: 3
    engine: CAFFE
  }
}
layer {
  name: "Threshold17_2"
  type: "ReLU"
  bottom: "BatchNorm13_2"
  top: "BatchNorm13_2"
}
layer {
  name: "ConvNd18_2"
  type: "Convolution"
  bottom: "BatchNorm13_2"
  top: "BatchNorm19_2"
  convolution_param {
    num_output: 64
    bias_term: true
    stride: 1
    weight_filler {
      type: "xavier"
    }
    pad_h: 0
    pad_w: 0
    kernel_h: 1
    kernel_w: 1
    engine: CAFFE
    dilation: 1
  }
}
layer {
  name: "Threshold20_2"
  type: "ReLU"
  bottom: "BatchNorm19_2"
  top: "BatchNorm19_2"
}
layer {
  name: "ConvNd21_2"
  type: "Convolution"
  bottom: "BatchNorm19_2"
  top: "BatchNorm22_2"
  convolution_param {
    num_output: 32
    bias_term: true
    pad: 1
    group: 1
    stride: 1
    weight_filler {
      type: "xavier"
    }
    kernel_h: 3
    kernel_w: 3
    engine: CAFFE
  }
}
layer {
  name: "Threshold26_2"
  type: "ReLU"
  bottom: "BatchNorm22_2"
  top: "BatchNorm25_2"
}
layer {
  name: "Concat24_2"
  type: "Concat"
  bottom: "BatchNorm5_2"
  bottom: "BatchNorm13_2"
  bottom: "BatchNorm25_2"
  bottom: "BatchNorm28"
  top: "Concat24_2"
  concat_param {
    axis: 1
  }
}
layer {
  name: "ConvNd27_2"
  type: "Convolution"
  bottom: "Concat24_2"
  top: "BatchNorm28_2"
  convolution_param {
    num_output: 128
    bias_term: true
    stride: 1
    weight_filler {
      type: "xavier"
    }
    pad_h: 0
    pad_w: 0
    kernel_h: 1
    kernel_w: 1
    engine: CAFFE
    dilation: 1
  }
}
layer {
  name: "Threshold28_2"
  type: "ReLU"
  bottom: "BatchNorm28_2"
  top: "BatchNorm28_2"
}
layer {
  name: "ConvNd29"
  type: "Convolution"
  bottom: "BatchNorm28_2"
  top: "BatchNorm30"
  convolution_param {
    num_output: 128
    bias_term: true
    group: 2
    stride: 2
    weight_filler {
      type: "xavier"
    }
    pad_h: 1
    pad_w: 1
    kernel_h: 3
    kernel_w: 3
    engine: CAFFE
    dilation: 1
  }
}
layer {
  name: "Threshold33"
  type: "ReLU"
  bottom: "BatchNorm30"
  top: "BatchNorm30_"
}
layer {
  name: "ConvNd34"
  type: "Convolution"
  bottom: "BatchNorm30_"
  top: "BatchNorm35"
  convolution_param {
    num_output: 128
    bias_term: true
    stride: 1
    weight_filler {
      type: "xavier"
    }
    pad_h: 0
    pad_w: 0
    kernel_h: 1
    kernel_w: 1
    engine: CAFFE
    dilation: 1
  }
}
layer {
  name: "Threshold36"
  type: "ReLU"
  bottom: "BatchNorm35"
  top: "BatchNorm35"
}
layer {
  name: "ConvNd37"
  type: "Convolution"
  bottom: "BatchNorm35"
  top: "BatchNorm38"
  convolution_param {
    num_output: 64
    bias_term: true
    pad: 1
    group: 1
    stride: 1
    weight_filler {
      type: "xavier"
    }
    kernel_h: 3
    kernel_w: 3
    engine: CAFFE
  }
}
layer {
  name: "Threshold42"
  type: "ReLU"
  bottom: "BatchNorm38"
  top: "BatchNorm38_"
}
layer {
  name: "ConvNd43"
  type: "Convolution"
  bottom: "BatchNorm38_"
  top: "BatchNorm44"
  convolution_param {
    num_output: 128
    bias_term: true
    stride: 1
    weight_filler {
      type: "xavier"
    }
    pad_h: 0
    pad_w: 0
    kernel_h: 1
    kernel_w: 1
    engine: CAFFE
    dilation: 1
  }
}
layer {
  name: "Threshold45"
  type: "ReLU"
  bottom: "BatchNorm44"
  top: "BatchNorm44"
}
layer {
  name: "ConvNd46"
  type: "Convolution"
  bottom: "BatchNorm44"
  top: "BatchNorm47"
  convolution_param {
    num_output: 64
    bias_term: true
    pad: 1
    group: 1
    stride: 1
    weight_filler {
      type: "xavier"
    }
    kernel_h: 3
    kernel_w: 3
    engine: CAFFE
  }
}
layer {
  name: "Threshold51"
  type: "ReLU"
  bottom: "BatchNorm47"
  top: "BatchNorm50_"
}
layer {
  name: "Concat49"
  type: "Concat"
  bottom: "BatchNorm30_"
  bottom: "BatchNorm38_"
  bottom: "BatchNorm50_"
  top: "Concat49"
  concat_param {
    axis: 1
  }
}
layer {
  name: "ConvNd52"
  type: "Convolution"
  bottom: "Concat49"
  top: "BatchNorm53"
  convolution_param {
    num_output: 128
    bias_term: true
    stride: 1
    weight_filler {
      type: "xavier"
    }
    pad_h: 0
    pad_w: 0
    kernel_h: 1
    kernel_w: 1
    engine: CAFFE
    dilation: 1
  }
}
layer {
  name: "Threshold53"
  type: "ReLU"
  bottom: "BatchNorm53"
  top: "BatchNorm53"
}
layer {
  name: "ConvNd55"
  type: "Convolution"
  bottom: "BatchNorm53"
  top: "BatchNorm56"
  convolution_param {
    num_output: 128
    bias_term: true
    group: 2
    stride: 1
    weight_filler {
      type: "xavier"
    }
    pad_h: 1
    pad_w: 1
    kernel_h: 3
    kernel_w: 3
    engine: CAFFE
    dilation: 1
  }
}
layer {
  name: "Threshold59"
  type: "ReLU"
  bottom: "BatchNorm56"
  top: "BatchNorm56_"
}
layer {
  name: "ConvNd60"
  type: "Convolution"
  bottom: "BatchNorm56_"
  top: "BatchNorm61"
  convolution_param {
    num_output: 128
    bias_term: true
    stride: 1
    weight_filler {
      type: "xavier"
    }
    pad_h: 0
    pad_w: 0
    kernel_h: 1
    kernel_w: 1
    engine: CAFFE
    dilation: 1
  }
}
layer {
  name: "Threshold62"
  type: "ReLU"
  bottom: "BatchNorm61"
  top: "BatchNorm61"
}
layer {
  name: "ConvNd63"
  type: "Convolution"
  bottom: "BatchNorm61"
  top: "BatchNorm64"
  convolution_param {
    num_output: 64
    bias_term: true
    pad: 1
    group: 1
    stride: 1
    weight_filler {
      type: "xavier"
    }
    kernel_h: 3
    kernel_w: 3
    engine: CAFFE
  }
}
layer {
  name: "Threshold68"
  type: "ReLU"
  bottom: "BatchNorm64"
  top: "BatchNorm64_"
}
layer {
  name: "ConvNd69"
  type: "Convolution"
  bottom: "BatchNorm64_"
  top: "BatchNorm70"
  convolution_param {
    num_output: 128
    bias_term: true
    stride: 1
    weight_filler {
      type: "xavier"
    }
    pad_h: 0
    pad_w: 0
    kernel_h: 1
    kernel_w: 1
    engine: CAFFE
    dilation: 1
  }
}
layer {
  name: "Threshold71"
  type: "ReLU"
  bottom: "BatchNorm70"
  top: "BatchNorm70"
}
layer {
  name: "ConvNd72"
  type: "Convolution"
  bottom: "BatchNorm70"
  top: "BatchNorm73"
  convolution_param {
    num_output: 64
    bias_term: true
    pad: 1
    group: 1
    stride: 1
    weight_filler {
      type: "xavier"
    }
    kernel_h: 3
    kernel_w: 3
    engine: CAFFE
  }
}
layer {
  name: "Threshold77"
  type: "ReLU"
  bottom: "BatchNorm73"
  top: "BatchNorm76_"
}
layer {
  name: "Concat75"
  type: "Concat"
  bottom: "BatchNorm56_"
  bottom: "BatchNorm64_"
  bottom: "BatchNorm76_"
  bottom: "BatchNorm53"
  top: "Concat75"
  concat_param {
    axis: 1
  }
}
layer {
  name: "ConvNd78"
  type: "Convolution"
  bottom: "Concat75"
  top: "BatchNorm79"
  convolution_param {
    num_output: 128
    bias_term: true
    stride: 1
    weight_filler {
      type: "xavier"
    }
    pad_h: 0
    pad_w: 0
    kernel_h: 1
    kernel_w: 1
    engine: CAFFE
    dilation: 1
  }
}
layer {
  name: "Threshold79"
  type: "ReLU"
  bottom: "BatchNorm79"
  top: "BatchNorm79"
}
layer {
  name: "ConvNd82"
  type: "Convolution"
  bottom: "BatchNorm79"
  top: "BatchNorm83"
  convolution_param {
    num_output: 128
    bias_term: true
    group: 4
    stride: 1
    weight_filler {
      type: "xavier"
    }
    pad_h: 1
    pad_w: 1
    kernel_h: 3
    kernel_w: 3
    engine: CAFFE
    dilation: 1
  }
}
layer {
  name: "Threshold86"
  type: "ReLU"
  bottom: "BatchNorm83"
  top: "BatchNorm83_"
}
layer {
  name: "ConvNd87"
  type: "Convolution"
  bottom: "BatchNorm83_"
  top: "BatchNorm88"
  convolution_param {
    num_output: 128
    bias_term: true
    stride: 1
    weight_filler {
      type: "xavier"
    }
    pad_h: 0
    pad_w: 0
    kernel_h: 1
    kernel_w: 1
    engine: CAFFE
    dilation: 1
  }
}
layer {
  name: "Threshold89"
  type: "ReLU"
  bottom: "BatchNorm88"
  top: "BatchNorm88"
}
layer {
  name: "ConvNd90"
  type: "Convolution"
  bottom: "BatchNorm88"
  top: "BatchNorm91"
  convolution_param {
    num_output: 64
    bias_term: true
    pad: 1
    group: 2
    stride: 1
    weight_filler {
      type: "xavier"
    }
    kernel_h: 3
    kernel_w: 3
    engine: CAFFE
  }
}
layer {
  name: "Threshold95"
  type: "ReLU"
  bottom: "BatchNorm91"
  top: "BatchNorm91_"
}
layer {
  name: "ConvNd96"
  type: "Convolution"
  bottom: "BatchNorm91_"
  top: "BatchNorm97"
  convolution_param {
    num_output: 128
    bias_term: true
    stride: 1
    weight_filler {
      type: "xavier"
    }
    pad_h: 0
    pad_w: 0
    kernel_h: 1
    kernel_w: 1
    engine: CAFFE
    dilation: 1
  }
}
layer {
  name: "Threshold98"
  type: "ReLU"
  bottom: "BatchNorm97"
  top: "BatchNorm97"
}
layer {
  name: "ConvNd99"
  type: "Convolution"
  bottom: "BatchNorm97"
  top: "BatchNorm100"
  convolution_param {
    num_output: 64
    bias_term: true
    pad: 1
    group: 2
    stride: 1
    weight_filler {
      type: "xavier"
    }
    kernel_h: 3
    kernel_w: 3
    engine: CAFFE
  }
}
layer {
  name: "Threshold104"
  type: "ReLU"
  bottom: "BatchNorm100"
  top: "BatchNorm103_"
}
layer {
  name: "Concat102"
  type: "Concat"
  bottom: "BatchNorm83_"
  bottom: "BatchNorm91_"
  bottom: "BatchNorm103_"
  bottom: "BatchNorm53"
  top: "Concat102"
  concat_param {
    axis: 1
  }
}
layer {
  name: "ConvNd105"
  type: "Convolution"
  bottom: "Concat102"
  top: "BatchNorm106"
  convolution_param {
    num_output: 288
    bias_term: true
    stride: 1
    weight_filler {
      type: "xavier"
    }
    pad_h: 0
    pad_w: 0
    kernel_h: 1
    kernel_w: 1
    engine: CAFFE
    dilation: 1
  }
}
layer {
  name: "Threshold106"
  type: "ReLU"
  bottom: "BatchNorm106"
  top: "BatchNorm106"
}
layer {
  name: "ConvNd108"
  type: "Convolution"
  bottom: "BatchNorm106"
  top: "BatchNorm109"
  convolution_param {
    num_output: 288
    bias_term: true
    group: 4
    stride: 2
    weight_filler {
      type: "xavier"
    }
    pad_h: 1
    pad_w: 1
    kernel_h: 3
    kernel_w: 3
    engine: CAFFE
    dilation: 1
  }
}
layer {
  name: "Threshold112"
  type: "ReLU"
  bottom: "BatchNorm109"
  top: "BatchNorm109_"
}
layer {
  name: "ConvNd113"
  type: "Convolution"
  bottom: "BatchNorm109_"
  top: "BatchNorm114"
  convolution_param {
    num_output: 288
    bias_term: true
    stride: 1
    weight_filler {
      type: "xavier"
    }
    pad_h: 0
    pad_w: 0
    kernel_h: 1
    kernel_w: 1
    engine: CAFFE
    dilation: 1
  }
}
layer {
  name: "Threshold115"
  type: "ReLU"
  bottom: "BatchNorm114"
  top: "BatchNorm114"
}
layer {
  name: "ConvNd116"
  type: "Convolution"
  bottom: "BatchNorm114"
  top: "BatchNorm117"
  convolution_param {
    num_output: 144
    bias_term: true
    pad: 1
    group: 2
    stride: 1
    weight_filler {
      type: "xavier"
    }
    kernel_h: 3
    kernel_w: 3
    engine: CAFFE
  }
}
layer {
  name: "Threshold121"
  type: "ReLU"
  bottom: "BatchNorm117"
  top: "BatchNorm117_"
}
layer {
  name: "ConvNd122"
  type: "Convolution"
  bottom: "BatchNorm117_"
  top: "BatchNorm123"
  convolution_param {
    num_output: 288
    bias_term: true
    stride: 1
    weight_filler {
      type: "xavier"
    }
    pad_h: 0
    pad_w: 0
    kernel_h: 1
    kernel_w: 1
    engine: CAFFE
    dilation: 1
  }
}
layer {
  name: "Threshold124"
  type: "ReLU"
  bottom: "BatchNorm123"
  top: "BatchNorm123"
}
layer {
  name: "ConvNd125"
  type: "Convolution"
  bottom: "BatchNorm123"
  top: "BatchNorm126"
  convolution_param {
    num_output: 144
    bias_term: true
    pad: 1
    group: 2
    stride: 1
    weight_filler {
      type: "xavier"
    }
    kernel_h: 3
    kernel_w: 3
    engine: CAFFE
  }
}
layer {
  name: "Threshold130"
  type: "ReLU"
  bottom: "BatchNorm126"
  top: "BatchNorm129_"
}
layer {
  name: "Concat128"
  type: "Concat"
  bottom: "BatchNorm109_"
  bottom: "BatchNorm117_"
  bottom: "BatchNorm129_"
  top: "Concat128"
  concat_param {
    axis: 1
  }
}
layer {
  name: "ConvNd131"
  type: "Convolution"
  bottom: "Concat128"
  top: "BatchNorm132"
  convolution_param {
    num_output: 288
    bias_term: true
    stride: 1
    weight_filler {
      type: "xavier"
    }
    pad_h: 0
    pad_w: 0
    kernel_h: 1
    kernel_w: 1
    engine: CAFFE
    dilation: 1
  }
}
layer {
  name: "Threshold132"
  type: "ReLU"
  bottom: "BatchNorm132"
  top: "BatchNorm132"
}
layer {
  name: "ConvNd134"
  type: "Convolution"
  bottom: "BatchNorm132"
  top: "BatchNorm135"
  convolution_param {
    num_output: 288
    bias_term: true
    group: 4
    stride: 1
    weight_filler {
      type: "xavier"
    }
    pad_h: 1
    pad_w: 1
    kernel_h: 3
    kernel_w: 3
    engine: CAFFE
    dilation: 1
  }
}
layer {
  name: "Threshold138"
  type: "ReLU"
  bottom: "BatchNorm135"
  top: "BatchNorm135_"
}
layer {
  name: "ConvNd139"
  type: "Convolution"
  bottom: "BatchNorm135_"
  top: "BatchNorm140"
  convolution_param {
    num_output: 288
    bias_term: true
    stride: 1
    weight_filler {
      type: "xavier"
    }
    pad_h: 0
    pad_w: 0
    kernel_h: 1
    kernel_w: 1
    engine: CAFFE
    dilation: 1
  }
}
layer {
  name: "Threshold141"
  type: "ReLU"
  bottom: "BatchNorm140"
  top: "BatchNorm140"
}
layer {
  name: "ConvNd142"
  type: "Convolution"
  bottom: "BatchNorm140"
  top: "BatchNorm143"
  convolution_param {
    num_output: 144
    bias_term: true
    pad: 1
    group: 2
    stride: 1
    weight_filler {
      type: "xavier"
    }
    kernel_h: 3
    kernel_w: 3
    engine: CAFFE
  }
}
layer {
  name: "Threshold147"
  type: "ReLU"
  bottom: "BatchNorm143"
  top: "BatchNorm143_"
}
layer {
  name: "ConvNd148"
  type: "Convolution"
  bottom: "BatchNorm143_"
  top: "BatchNorm149"
  convolution_param {
    num_output: 288
    bias_term: true
    stride: 1
    weight_filler {
      type: "xavier"
    }
    pad_h: 0
    pad_w: 0
    kernel_h: 1
    kernel_w: 1
    engine: CAFFE
    dilation: 1
  }
}
layer {
  name: "Threshold150"
  type: "ReLU"
  bottom: "BatchNorm149"
  top: "BatchNorm149"
}
layer {
  name: "ConvNd151"
  type: "Convolution"
  bottom: "BatchNorm149"
  top: "BatchNorm152"
  convolution_param {
    num_output: 144
    bias_term: true
    pad: 1
    group: 2
    stride: 1
    weight_filler {
      type: "xavier"
    }
    kernel_h: 3
    kernel_w: 3
    engine: CAFFE
  }
}
layer {
  name: "Threshold156"
  type: "ReLU"
  bottom: "BatchNorm152"
  top: "BatchNorm155_"
}
layer {
  name: "Concat154"
  type: "Concat"
  bottom: "BatchNorm135_"
  bottom: "BatchNorm143_"
  bottom: "BatchNorm155_"
  bottom: "BatchNorm132"
  top: "Concat154"
  concat_param {
    axis: 1
  }
}
layer {
  name: "ConvNd157"
  type: "Convolution"
  bottom: "Concat154"
  top: "BatchNorm158"
  convolution_param {
    num_output: 288
    bias_term: true
    stride: 1
    weight_filler {
      type: "xavier"
    }
    pad_h: 0
    pad_w: 0
    kernel_h: 1
    kernel_w: 1
    engine: CAFFE
    dilation: 1
  }
}
layer {
  name: "Threshold158"
  type: "ReLU"
  bottom: "BatchNorm158"
  top: "BatchNorm158"
}
layer {
  name: "ConvNd161"
  type: "Convolution"
  bottom: "BatchNorm158"
  top: "BatchNorm162"
  convolution_param {
    num_output: 288
    bias_term: true
    group: 4
    stride: 1
    weight_filler {
      type: "xavier"
    }
    pad_h: 1
    pad_w: 1
    kernel_h: 3
    kernel_w: 3
    engine: CAFFE
    dilation: 1
  }
}
layer {
  name: "Threshold165"
  type: "ReLU"
  bottom: "BatchNorm162"
  top: "BatchNorm162_"
}
layer {
  name: "ConvNd166"
  type: "Convolution"
  bottom: "BatchNorm162_"
  top: "BatchNorm167"
  convolution_param {
    num_output: 288
    bias_term: true
    stride: 1
    weight_filler {
      type: "xavier"
    }
    pad_h: 0
    pad_w: 0
    kernel_h: 1
    kernel_w: 1
    engine: CAFFE
    dilation: 1
  }
}
layer {
  name: "Threshold168"
  type: "ReLU"
  bottom: "BatchNorm167"
  top: "BatchNorm167"
}
layer {
  name: "ConvNd169"
  type: "Convolution"
  bottom: "BatchNorm167"
  top: "BatchNorm170"
  convolution_param {
    num_output: 144
    bias_term: true
    pad: 1
    group: 2
    stride: 1
    weight_filler {
      type: "xavier"
    }
    kernel_h: 3
    kernel_w: 3
    engine: CAFFE
  }
}
layer {
  name: "Threshold174"
  type: "ReLU"
  bottom: "BatchNorm170"
  top: "BatchNorm170_"
}
layer {
  name: "ConvNd175"
  type: "Convolution"
  bottom: "BatchNorm170_"
  top: "BatchNorm176"
  convolution_param {
    num_output: 288
    bias_term: true
    stride: 1
    weight_filler {
      type: "xavier"
    }
    pad_h: 0
    pad_w: 0
    kernel_h: 1
    kernel_w: 1
    engine: CAFFE
    dilation: 1
  }
}
layer {
  name: "Threshold177"
  type: "ReLU"
  bottom: "BatchNorm176"
  top: "BatchNorm176"
}
layer {
  name: "ConvNd178"
  type: "Convolution"
  bottom: "BatchNorm176"
  top: "BatchNorm179"
  convolution_param {
    num_output: 144
    bias_term: true
    pad: 1
    group: 2
    stride: 1
    weight_filler {
      type: "xavier"
    }
    kernel_h: 3
    kernel_w: 3
    engine: CAFFE
  }
}
layer {
  name: "Threshold183"
  type: "ReLU"
  bottom: "BatchNorm179"
  top: "BatchNorm182_"
}
layer {
  name: "Concat181"
  type: "Concat"
  bottom: "BatchNorm162_"
  bottom: "BatchNorm170_"
  bottom: "BatchNorm182_"
  bottom: "BatchNorm132"
  top: "Concat181"
  concat_param {
    axis: 1
  }
}
layer {
  name: "ConvNd184"
  type: "Convolution"
  bottom: "Concat181"
  top: "BatchNorm185"
  convolution_param {
    num_output: 288
    bias_term: true
    stride: 1
    weight_filler {
      type: "xavier"
    }
    pad_h: 0
    pad_w: 0
    kernel_h: 1
    kernel_w: 1
    engine: CAFFE
    dilation: 1
  }
}
layer {
  name: "Threshold185"
  type: "ReLU"
  bottom: "BatchNorm185"
  top: "BatchNorm185"
}
layer {
  name: "ConvNd187"
  type: "Convolution"
  bottom: "BatchNorm185"
  top: "BatchNorm188"
  convolution_param {
    num_output: 288
    bias_term: true
    group: 4
    stride: 1
    weight_filler {
      type: "xavier"
    }
    pad_h: 1
    pad_w: 1
    kernel_h: 3
    kernel_w: 3
    engine: CAFFE
    dilation: 1
  }
}
layer {
  name: "Threshold191"
  type: "ReLU"
  bottom: "BatchNorm188"
  top: "BatchNorm188_"
}
layer {
  name: "ConvNd192"
  type: "Convolution"
  bottom: "BatchNorm188_"
  top: "BatchNorm193"
  convolution_param {
    num_output: 288
    bias_term: true
    stride: 1
    weight_filler {
      type: "xavier"
    }
    pad_h: 0
    pad_w: 0
    kernel_h: 1
    kernel_w: 1
    engine: CAFFE
    dilation: 1
  }
}
layer {
  name: "Threshold194"
  type: "ReLU"
  bottom: "BatchNorm193"
  top: "BatchNorm193"
}
layer {
  name: "ConvNd195"
  type: "Convolution"
  bottom: "BatchNorm193"
  top: "BatchNorm196"
  convolution_param {
    num_output: 144
    bias_term: true
    pad: 1
    group: 2
    stride: 1
    weight_filler {
      type: "xavier"
    }
    kernel_h: 3
    kernel_w: 3
    engine: CAFFE
  }
}
layer {
  name: "Threshold200"
  type: "ReLU"
  bottom: "BatchNorm196"
  top: "BatchNorm196_"
}
layer {
  name: "ConvNd201"
  type: "Convolution"
  bottom: "BatchNorm196_"
  top: "BatchNorm202"
  convolution_param {
    num_output: 288
    bias_term: true
    stride: 1
    weight_filler {
      type: "xavier"
    }
    pad_h: 0
    pad_w: 0
    kernel_h: 1
    kernel_w: 1
    engine: CAFFE
    dilation: 1
  }
}
layer {
  name: "Threshold203"
  type: "ReLU"
  bottom: "BatchNorm202"
  top: "BatchNorm202"
}
layer {
  name: "ConvNd204"
  type: "Convolution"
  bottom: "BatchNorm202"
  top: "BatchNorm205"
  convolution_param {
    num_output: 144
    bias_term: true
    pad: 1
    group: 2
    stride: 1
    weight_filler {
      type: "xavier"
    }
    kernel_h: 3
    kernel_w: 3
    engine: CAFFE
  }
}
layer {
  name: "Threshold209"
  type: "ReLU"
  bottom: "BatchNorm205"
  top: "BatchNorm208_"
}
layer {
  name: "Concat207"
  type: "Concat"
  bottom: "BatchNorm188_"
  bottom: "BatchNorm196_"
  bottom: "BatchNorm208_"
  bottom: "BatchNorm132"
  top: "Concat207"
  concat_param {
    axis: 1
  }
}
layer {
  name: "ConvNd210"
  type: "Convolution"
  bottom: "Concat207"
  top: "BatchNorm270"
  convolution_param {
    num_output: 416
    bias_term: true
    stride: 1
    weight_filler {
      type: "xavier"
    }
    pad_h: 0
    pad_w: 0
    kernel_h: 1
    kernel_w: 1
    engine: CAFFE
    dilation: 1
  }
}
layer {
  name: "Threshold270"
  type: "ReLU"
  bottom: "BatchNorm270"
  top: "BatchNorm270"
}
layer {
  name: "res5b_branch2b_new"
  type: "Convolution"
  bottom: "BatchNorm270"
  top: "res5b_branch2b"
  param {
    lr_mult: 1
  }
  convolution_param {
    num_output: 256
    bias_term: true
    pad: 0
    kernel_size: 1
    group: 1
    stride: 1
    weight_filler {
      type: "xavier"
    }
    engine: CAFFE
  }
}
layer {
  name: "res5b_branch2b_relu"
  type: "ReLU"
  bottom: "res5b_branch2b"
  top: "res5b_branch2b"
}
layer {
  name: "res5b_branch2c_new"
  type: "Deconvolution"
  bottom: "res5b_branch2b"
  top: "res5b_branch2c"
  param {
    lr_mult: 1
  }
  convolution_param {
    num_output: 192
    bias_term: true
    pad: 1
    kernel_size: 4
    group: 4
    stride: 2
    weight_filler {
      type: "xavier"
    }
    engine: CAFFE
  }
}
layer {
  name: "res5b_relu"
  type: "ReLU"
  bottom: "res5b_branch2c"
  top: "res5b_branch2c"
}
layer {
  name: "res5c_branch2a_new"
  type: "Convolution"
  bottom: "res5b_branch2c"
  top: "res5c_branch2a"
  param {
    lr_mult: 1
  }
  convolution_param {
    num_output: 128
    bias_term: true
    pad: 1
    kernel_size: 3
    stride: 1
    weight_filler {
      type: "xavier"
    }
    engine: CAFFE
  }
}
layer {
  name: "res5c_branch2a_relu"
  type: "ReLU"
  bottom: "res5c_branch2a"
  top: "res5c_branch2a"
}
layer {
  name: "res5c_branch2b_new"
  type: "Convolution"
  bottom: "res5c_branch2a"
  top: "res5c_branch2b"
  param {
    lr_mult: 1
  }
  convolution_param {
    num_output: 96
    bias_term: true
    pad: 1
    kernel_size: 3
    group: 4
    stride: 1
    weight_filler {
      type: "xavier"
    }
    engine: CAFFE
  }
}
layer {
  name: "res5c_branch2b_relu"
  type: "ReLU"
  bottom: "res5c_branch2b"
  top: "res5c_branch2b"
}
layer {
  name: "res5c_branch2c_new"
  type: "Convolution"
  bottom: "res5c_branch2b"
  top: "res5c_branch2c"
  param {
    lr_mult: 1
  }
  convolution_param {
    num_output: 57
    bias_term: true
    pad: 1
    kernel_size: 3
    stride: 1
    weight_filler {
      type: "xavier"
    }
    bias_filler {
      type: "constant"
      value: 0
    }
    engine: CAFFE
  }
}
layer {
  name: "res5b_branch2b_3da"
  type: "Convolution"
  bottom: "BatchNorm270"
  top: "res5b_branch2b_3da"
  convolution_param {
    num_output: 256
    bias_term: true
    pad: 0
    kernel_size: 1
    group: 1
    stride: 1
    weight_filler {
      type: "xavier"
    }
    engine: CAFFE
  }
}
layer {
  name: "res5b_branch2b_prelu_3da"
  type: "ReLU"
  bottom: "res5b_branch2b_3da"
  top: "res5b_branch2b_3da"
}
layer {
  name: "ConvNd187_3d"
  type: "Deconvolution"
  bottom: "res5b_branch2b_3da"
  top: "BatchNorm188_3d"
  convolution_param {
    num_output: 192
    bias_term: true
    pad: 1
    kernel_size: 4
    group: 4
    stride: 2
    weight_filler {
      type: "xavier"
    }
    engine: CAFFE
  }
}
layer {
  name: "Threshold189_3d"
  type: "ReLU"
  bottom: "BatchNorm188_3d"
  top: "BatchNorm188_3d"
}
layer {
  name: "ConvNd210_3d"
  type: "Convolution"
  bottom: "BatchNorm188_3d"
  top: "BatchNorm211_3d"
  convolution_param {
    num_output: 160
    bias_term: true
    pad: 1
    kernel_size: 3
    stride: 1
    weight_filler {
      type: "xavier"
    }
    engine: CAFFE
  }
}
layer {
  name: "Threshold268_3d"
  type: "ReLU"
  bottom: "BatchNorm211_3d"
  top: "BatchNorm211_3d"
}
layer {
  name: "Concat 2dnet and 3d"
  type: "Concat"
  bottom: "BatchNorm211_3d"
  bottom: "res5c_branch2a"
  top: "res5c_concat"
  concat_param {
    axis: 1
  }
}
layer {
  name: "res5b_branch2c_3d"
  type: "Convolution"
  bottom: "res5c_concat"
  top: "res5b_branch2c_3d"
  convolution_param {
    num_output: 160
    bias_term: true
    pad: 0
    kernel_size: 1
    stride: 1
    weight_filler {
      type: "xavier"
    }
    engine: CAFFE
  }
}
layer {
  name: "res5b_branch2c_relu_3d"
  type: "ReLU"
  bottom: "res5b_branch2c_3d"
  top: "res5b_branch2c_3d"
}
layer {
  name: "res7a_branch1_3d"
  type: "Convolution"
  bottom: "res5b_branch2c_3d"
  top: "res7a_branch1_3d"
  convolution_param {
    num_output: 128
    bias_term: true
    pad: 1
    kernel_size: 3
    group: 4
    stride: 1
    weight_filler {
      type: "xavier"
    }
    engine: CAFFE
  }
}
layer {
  name: "res7a_branch1_relu_3d"
  type: "ReLU"
  bottom: "res7a_branch1_3d"
  top: "res7a_branch1_3d"
}
layer {
  name: "res7a_branch2a_3d"
  type: "Convolution"
  bottom: "res7a_branch1_3d"
  top: "7b_prediction"
  convolution_param {
    num_output: 63
    bias_term: true
    pad: 1
    kernel_size: 3
    stride: 1
    weight_filler {
      type: "xavier"
    }
    bias_filler {
      type: "constant"
      value: 0
    }
    engine: CAFFE
  }
}
layer {
  name: "slice_res5c"
  type: "Slice"
  bottom: "res5c_branch2c"
  top: "heatmap_2d"
  top: "affinity_2d"
  slice_param {
    slice_point: 19
    axis: 1
  }
}
layer {
  name: "resize"
  type: "ImResize"
  bottom: "res5c_branch2c"
  top: "resized_map"
  imresize_param {
    factor: 4
    start_scale: 1
    scale_gap: 1
  }
}
layer {
  name: "nms"
  type: "Nms"
  bottom: "resized_map"
  top: "joints"
  propagate_down: false
  nms_param {
    threshold: 0.2
    max_peaks: 64
    num_parts: 18
  }
}
I1109 23:04:56.506772  7692 layer_factory.cpp:80] Creating layer input
I1109 23:04:56.506772  7692 net.cpp:84] Creating Layer input
I1109 23:04:56.506772  7692 net.cpp:380] input -> data
I1109 23:04:56.513754  7692 net.cpp:122] Setting up input
I1109 23:04:56.513754  7692 net.cpp:129] Top shape: 1 3 512 320 (491520)
I1109 23:04:56.513754  7692 net.cpp:137] Memory required for data: 1966080
I1109 23:04:56.513754  7692 layer_factory.cpp:80] Creating layer ConvNd1
I1109 23:04:56.513754  7692 net.cpp:84] Creating Layer ConvNd1
I1109 23:04:56.513754  7692 net.cpp:406] ConvNd1 <- data
I1109 23:04:56.513754  7692 net.cpp:380] ConvNd1 -> BatchNorm2
I1109 23:04:56.513754  7692 common.cpp:36] System entropy source not available, using fallback algorithm to generate seed instead.
I1109 23:04:56.513754  7692 net.cpp:122] Setting up ConvNd1
I1109 23:04:56.513754  7692 net.cpp:129] Top shape: 1 32 256 160 (1310720)
I1109 23:04:56.513754  7692 net.cpp:137] Memory required for data: 7208960
I1109 23:04:56.513754  7692 layer_factory.cpp:80] Creating layer Threshold3
I1109 23:04:56.513754  7692 net.cpp:84] Creating Layer Threshold3
I1109 23:04:56.513754  7692 net.cpp:406] Threshold3 <- BatchNorm2
I1109 23:04:56.513754  7692 net.cpp:367] Threshold3 -> BatchNorm2 (in-place)
I1109 23:04:56.513754  7692 net.cpp:122] Setting up Threshold3
I1109 23:04:56.513754  7692 net.cpp:129] Top shape: 1 32 256 160 (1310720)
I1109 23:04:56.513754  7692 net.cpp:137] Memory required for data: 12451840
I1109 23:04:56.513754  7692 layer_factory.cpp:80] Creating layer ConvNd4
I1109 23:04:56.513754  7692 net.cpp:84] Creating Layer ConvNd4
I1109 23:04:56.513754  7692 net.cpp:406] ConvNd4 <- BatchNorm2
I1109 23:04:56.513754  7692 net.cpp:380] ConvNd4 -> BatchNorm5
I1109 23:04:56.513754  7692 net.cpp:122] Setting up ConvNd4
I1109 23:04:56.513754  7692 net.cpp:129] Top shape: 1 64 128 80 (655360)
I1109 23:04:56.513754  7692 net.cpp:137] Memory required for data: 15073280
I1109 23:04:56.513754  7692 layer_factory.cpp:80] Creating layer Threshold8
I1109 23:04:56.513754  7692 net.cpp:84] Creating Layer Threshold8
I1109 23:04:56.513754  7692 net.cpp:406] Threshold8 <- BatchNorm5
I1109 23:04:56.513754  7692 net.cpp:380] Threshold8 -> BatchNorm5_
I1109 23:04:56.513754  7692 net.cpp:122] Setting up Threshold8
I1109 23:04:56.513754  7692 net.cpp:129] Top shape: 1 64 128 80 (655360)
I1109 23:04:56.513754  7692 net.cpp:137] Memory required for data: 17694720
I1109 23:04:56.513754  7692 layer_factory.cpp:80] Creating layer BatchNorm5__Threshold8_0_split
I1109 23:04:56.513754  7692 net.cpp:84] Creating Layer BatchNorm5__Threshold8_0_split
I1109 23:04:56.513754  7692 net.cpp:406] BatchNorm5__Threshold8_0_split <- BatchNorm5_
I1109 23:04:56.513754  7692 net.cpp:380] BatchNorm5__Threshold8_0_split -> BatchNorm5__Threshold8_0_split_0
I1109 23:04:56.513754  7692 net.cpp:380] BatchNorm5__Threshold8_0_split -> BatchNorm5__Threshold8_0_split_1
I1109 23:04:56.513754  7692 net.cpp:122] Setting up BatchNorm5__Threshold8_0_split
I1109 23:04:56.514751  7692 net.cpp:129] Top shape: 1 64 128 80 (655360)
I1109 23:04:56.514751  7692 net.cpp:129] Top shape: 1 64 128 80 (655360)
I1109 23:04:56.514751  7692 net.cpp:137] Memory required for data: 22937600
I1109 23:04:56.514751  7692 layer_factory.cpp:80] Creating layer ConvNd9
I1109 23:04:56.514751  7692 net.cpp:84] Creating Layer ConvNd9
I1109 23:04:56.514751  7692 net.cpp:406] ConvNd9 <- BatchNorm5__Threshold8_0_split_0
I1109 23:04:56.514751  7692 net.cpp:380] ConvNd9 -> BatchNorm10
I1109 23:04:56.514751  7692 net.cpp:122] Setting up ConvNd9
I1109 23:04:56.514751  7692 net.cpp:129] Top shape: 1 64 128 80 (655360)
I1109 23:04:56.514751  7692 net.cpp:137] Memory required for data: 25559040
I1109 23:04:56.514751  7692 layer_factory.cpp:80] Creating layer Threshold11
I1109 23:04:56.514751  7692 net.cpp:84] Creating Layer Threshold11
I1109 23:04:56.514751  7692 net.cpp:406] Threshold11 <- BatchNorm10
I1109 23:04:56.514751  7692 net.cpp:367] Threshold11 -> BatchNorm10 (in-place)
I1109 23:04:56.514751  7692 net.cpp:122] Setting up Threshold11
I1109 23:04:56.514751  7692 net.cpp:129] Top shape: 1 64 128 80 (655360)
I1109 23:04:56.514751  7692 net.cpp:137] Memory required for data: 28180480
I1109 23:04:56.514751  7692 layer_factory.cpp:80] Creating layer ConvNd12
I1109 23:04:56.514751  7692 net.cpp:84] Creating Layer ConvNd12
I1109 23:04:56.514751  7692 net.cpp:406] ConvNd12 <- BatchNorm10
I1109 23:04:56.514751  7692 net.cpp:380] ConvNd12 -> BatchNorm13
I1109 23:04:56.514751  7692 net.cpp:122] Setting up ConvNd12
I1109 23:04:56.514751  7692 net.cpp:129] Top shape: 1 32 128 80 (327680)
I1109 23:04:56.514751  7692 net.cpp:137] Memory required for data: 29491200
I1109 23:04:56.514751  7692 layer_factory.cpp:80] Creating layer Threshold17
I1109 23:04:56.514751  7692 net.cpp:84] Creating Layer Threshold17
I1109 23:04:56.514751  7692 net.cpp:406] Threshold17 <- BatchNorm13
I1109 23:04:56.514751  7692 net.cpp:380] Threshold17 -> BatchNorm13_
I1109 23:04:56.514751  7692 net.cpp:122] Setting up Threshold17
I1109 23:04:56.514751  7692 net.cpp:129] Top shape: 1 32 128 80 (327680)
I1109 23:04:56.514751  7692 net.cpp:137] Memory required for data: 30801920
I1109 23:04:56.514751  7692 layer_factory.cpp:80] Creating layer BatchNorm13__Threshold17_0_split
I1109 23:04:56.514751  7692 net.cpp:84] Creating Layer BatchNorm13__Threshold17_0_split
I1109 23:04:56.514751  7692 net.cpp:406] BatchNorm13__Threshold17_0_split <- BatchNorm13_
I1109 23:04:56.514751  7692 net.cpp:380] BatchNorm13__Threshold17_0_split -> BatchNorm13__Threshold17_0_split_0
I1109 23:04:56.514751  7692 net.cpp:380] BatchNorm13__Threshold17_0_split -> BatchNorm13__Threshold17_0_split_1
I1109 23:04:56.514751  7692 net.cpp:122] Setting up BatchNorm13__Threshold17_0_split
I1109 23:04:56.514751  7692 net.cpp:129] Top shape: 1 32 128 80 (327680)
I1109 23:04:56.514751  7692 net.cpp:129] Top shape: 1 32 128 80 (327680)
I1109 23:04:56.514751  7692 net.cpp:137] Memory required for data: 33423360
I1109 23:04:56.514751  7692 layer_factory.cpp:80] Creating layer ConvNd18
I1109 23:04:56.514751  7692 net.cpp:84] Creating Layer ConvNd18
I1109 23:04:56.514751  7692 net.cpp:406] ConvNd18 <- BatchNorm13__Threshold17_0_split_0
I1109 23:04:56.514751  7692 net.cpp:380] ConvNd18 -> BatchNorm19
I1109 23:04:56.514751  7692 net.cpp:122] Setting up ConvNd18
I1109 23:04:56.514751  7692 net.cpp:129] Top shape: 1 64 128 80 (655360)
I1109 23:04:56.514751  7692 net.cpp:137] Memory required for data: 36044800
I1109 23:04:56.514751  7692 layer_factory.cpp:80] Creating layer Threshold20
I1109 23:04:56.514751  7692 net.cpp:84] Creating Layer Threshold20
I1109 23:04:56.514751  7692 net.cpp:406] Threshold20 <- BatchNorm19
I1109 23:04:56.514751  7692 net.cpp:367] Threshold20 -> BatchNorm19 (in-place)
I1109 23:04:56.515748  7692 net.cpp:122] Setting up Threshold20
I1109 23:04:56.515748  7692 net.cpp:129] Top shape: 1 64 128 80 (655360)
I1109 23:04:56.515748  7692 net.cpp:137] Memory required for data: 38666240
I1109 23:04:56.515748  7692 layer_factory.cpp:80] Creating layer ConvNd21
I1109 23:04:56.515748  7692 net.cpp:84] Creating Layer ConvNd21
I1109 23:04:56.515748  7692 net.cpp:406] ConvNd21 <- BatchNorm19
I1109 23:04:56.515748  7692 net.cpp:380] ConvNd21 -> BatchNorm22
I1109 23:04:56.515748  7692 net.cpp:122] Setting up ConvNd21
I1109 23:04:56.515748  7692 net.cpp:129] Top shape: 1 32 128 80 (327680)
I1109 23:04:56.515748  7692 net.cpp:137] Memory required for data: 39976960
I1109 23:04:56.515748  7692 layer_factory.cpp:80] Creating layer Threshold26
I1109 23:04:56.515748  7692 net.cpp:84] Creating Layer Threshold26
I1109 23:04:56.515748  7692 net.cpp:406] Threshold26 <- BatchNorm22
I1109 23:04:56.515748  7692 net.cpp:380] Threshold26 -> BatchNorm25_
I1109 23:04:56.515748  7692 net.cpp:122] Setting up Threshold26
I1109 23:04:56.515748  7692 net.cpp:129] Top shape: 1 32 128 80 (327680)
I1109 23:04:56.515748  7692 net.cpp:137] Memory required for data: 41287680
I1109 23:04:56.515748  7692 layer_factory.cpp:80] Creating layer Concat24
I1109 23:04:56.515748  7692 net.cpp:84] Creating Layer Concat24
I1109 23:04:56.515748  7692 net.cpp:406] Concat24 <- BatchNorm5__Threshold8_0_split_1
I1109 23:04:56.515748  7692 net.cpp:406] Concat24 <- BatchNorm13__Threshold17_0_split_1
I1109 23:04:56.515748  7692 net.cpp:406] Concat24 <- BatchNorm25_
I1109 23:04:56.515748  7692 net.cpp:380] Concat24 -> Concat24
I1109 23:04:56.515748  7692 net.cpp:122] Setting up Concat24
I1109 23:04:56.515748  7692 net.cpp:129] Top shape: 1 128 128 80 (1310720)
I1109 23:04:56.515748  7692 net.cpp:137] Memory required for data: 46530560
I1109 23:04:56.515748  7692 layer_factory.cpp:80] Creating layer ConvNd27
I1109 23:04:56.515748  7692 net.cpp:84] Creating Layer ConvNd27
I1109 23:04:56.515748  7692 net.cpp:406] ConvNd27 <- Concat24
I1109 23:04:56.515748  7692 net.cpp:380] ConvNd27 -> BatchNorm28
I1109 23:04:56.515748  7692 net.cpp:122] Setting up ConvNd27
I1109 23:04:56.515748  7692 net.cpp:129] Top shape: 1 64 128 80 (655360)
I1109 23:04:56.515748  7692 net.cpp:137] Memory required for data: 49152000
I1109 23:04:56.515748  7692 layer_factory.cpp:80] Creating layer Threshold28_
I1109 23:04:56.515748  7692 net.cpp:84] Creating Layer Threshold28_
I1109 23:04:56.515748  7692 net.cpp:406] Threshold28_ <- BatchNorm28
I1109 23:04:56.515748  7692 net.cpp:367] Threshold28_ -> BatchNorm28 (in-place)
I1109 23:04:56.515748  7692 net.cpp:122] Setting up Threshold28_
I1109 23:04:56.515748  7692 net.cpp:129] Top shape: 1 64 128 80 (655360)
I1109 23:04:56.515748  7692 net.cpp:137] Memory required for data: 51773440
I1109 23:04:56.515748  7692 layer_factory.cpp:80] Creating layer BatchNorm28_Threshold28__0_split
I1109 23:04:56.515748  7692 net.cpp:84] Creating Layer BatchNorm28_Threshold28__0_split
I1109 23:04:56.515748  7692 net.cpp:406] BatchNorm28_Threshold28__0_split <- BatchNorm28
I1109 23:04:56.515748  7692 net.cpp:380] BatchNorm28_Threshold28__0_split -> BatchNorm28_Threshold28__0_split_0
I1109 23:04:56.515748  7692 net.cpp:380] BatchNorm28_Threshold28__0_split -> BatchNorm28_Threshold28__0_split_1
I1109 23:04:56.515748  7692 net.cpp:122] Setting up BatchNorm28_Threshold28__0_split
I1109 23:04:56.515748  7692 net.cpp:129] Top shape: 1 64 128 80 (655360)
I1109 23:04:56.515748  7692 net.cpp:129] Top shape: 1 64 128 80 (655360)
I1109 23:04:56.515748  7692 net.cpp:137] Memory required for data: 57016320
I1109 23:04:56.515748  7692 layer_factory.cpp:80] Creating layer ConvNd4_2
I1109 23:04:56.515748  7692 net.cpp:84] Creating Layer ConvNd4_2
I1109 23:04:56.515748  7692 net.cpp:406] ConvNd4_2 <- BatchNorm28_Threshold28__0_split_0
I1109 23:04:56.515748  7692 net.cpp:380] ConvNd4_2 -> BatchNorm5_2
I1109 23:04:56.516746  7692 net.cpp:122] Setting up ConvNd4_2
I1109 23:04:56.516746  7692 net.cpp:129] Top shape: 1 64 128 80 (655360)
I1109 23:04:56.516746  7692 net.cpp:137] Memory required for data: 59637760
I1109 23:04:56.516746  7692 layer_factory.cpp:80] Creating layer Threshold8_2
I1109 23:04:56.516746  7692 net.cpp:84] Creating Layer Threshold8_2
I1109 23:04:56.516746  7692 net.cpp:406] Threshold8_2 <- BatchNorm5_2
I1109 23:04:56.516746  7692 net.cpp:367] Threshold8_2 -> BatchNorm5_2 (in-place)
I1109 23:04:56.516746  7692 net.cpp:122] Setting up Threshold8_2
I1109 23:04:56.516746  7692 net.cpp:129] Top shape: 1 64 128 80 (655360)
I1109 23:04:56.516746  7692 net.cpp:137] Memory required for data: 62259200
I1109 23:04:56.516746  7692 layer_factory.cpp:80] Creating layer BatchNorm5_2_Threshold8_2_0_split
I1109 23:04:56.516746  7692 net.cpp:84] Creating Layer BatchNorm5_2_Threshold8_2_0_split
I1109 23:04:56.516746  7692 net.cpp:406] BatchNorm5_2_Threshold8_2_0_split <- BatchNorm5_2
I1109 23:04:56.516746  7692 net.cpp:380] BatchNorm5_2_Threshold8_2_0_split -> BatchNorm5_2_Threshold8_2_0_split_0
I1109 23:04:56.516746  7692 net.cpp:380] BatchNorm5_2_Threshold8_2_0_split -> BatchNorm5_2_Threshold8_2_0_split_1
I1109 23:04:56.516746  7692 net.cpp:122] Setting up BatchNorm5_2_Threshold8_2_0_split
I1109 23:04:56.516746  7692 net.cpp:129] Top shape: 1 64 128 80 (655360)
I1109 23:04:56.516746  7692 net.cpp:129] Top shape: 1 64 128 80 (655360)
I1109 23:04:56.516746  7692 net.cpp:137] Memory required for data: 67502080
I1109 23:04:56.516746  7692 layer_factory.cpp:80] Creating layer ConvNd9_2
I1109 23:04:56.516746  7692 net.cpp:84] Creating Layer ConvNd9_2
I1109 23:04:56.516746  7692 net.cpp:406] ConvNd9_2 <- BatchNorm5_2_Threshold8_2_0_split_0
I1109 23:04:56.516746  7692 net.cpp:380] ConvNd9_2 -> BatchNorm10_2
I1109 23:04:56.516746  7692 net.cpp:122] Setting up ConvNd9_2
I1109 23:04:56.516746  7692 net.cpp:129] Top shape: 1 64 128 80 (655360)
I1109 23:04:56.516746  7692 net.cpp:137] Memory required for data: 70123520
I1109 23:04:56.516746  7692 layer_factory.cpp:80] Creating layer Threshold11_2
I1109 23:04:56.516746  7692 net.cpp:84] Creating Layer Threshold11_2
I1109 23:04:56.516746  7692 net.cpp:406] Threshold11_2 <- BatchNorm10_2
I1109 23:04:56.516746  7692 net.cpp:367] Threshold11_2 -> BatchNorm10_2 (in-place)
I1109 23:04:56.516746  7692 net.cpp:122] Setting up Threshold11_2
I1109 23:04:56.516746  7692 net.cpp:129] Top shape: 1 64 128 80 (655360)
I1109 23:04:56.516746  7692 net.cpp:137] Memory required for data: 72744960
I1109 23:04:56.516746  7692 layer_factory.cpp:80] Creating layer ConvNd12_2
I1109 23:04:56.516746  7692 net.cpp:84] Creating Layer ConvNd12_2
I1109 23:04:56.516746  7692 net.cpp:406] ConvNd12_2 <- BatchNorm10_2
I1109 23:04:56.516746  7692 net.cpp:380] ConvNd12_2 -> BatchNorm13_2
I1109 23:04:56.516746  7692 net.cpp:122] Setting up ConvNd12_2
I1109 23:04:56.516746  7692 net.cpp:129] Top shape: 1 32 128 80 (327680)
I1109 23:04:56.516746  7692 net.cpp:137] Memory required for data: 74055680
I1109 23:04:56.516746  7692 layer_factory.cpp:80] Creating layer Threshold17_2
I1109 23:04:56.516746  7692 net.cpp:84] Creating Layer Threshold17_2
I1109 23:04:56.516746  7692 net.cpp:406] Threshold17_2 <- BatchNorm13_2
I1109 23:04:56.516746  7692 net.cpp:367] Threshold17_2 -> BatchNorm13_2 (in-place)
I1109 23:04:56.516746  7692 net.cpp:122] Setting up Threshold17_2
I1109 23:04:56.516746  7692 net.cpp:129] Top shape: 1 32 128 80 (327680)
I1109 23:04:56.516746  7692 net.cpp:137] Memory required for data: 75366400
I1109 23:04:56.516746  7692 layer_factory.cpp:80] Creating layer BatchNorm13_2_Threshold17_2_0_split
I1109 23:04:56.516746  7692 net.cpp:84] Creating Layer BatchNorm13_2_Threshold17_2_0_split
I1109 23:04:56.516746  7692 net.cpp:406] BatchNorm13_2_Threshold17_2_0_split <- BatchNorm13_2
I1109 23:04:56.516746  7692 net.cpp:380] BatchNorm13_2_Threshold17_2_0_split -> BatchNorm13_2_Threshold17_2_0_split_0
I1109 23:04:56.516746  7692 net.cpp:380] BatchNorm13_2_Threshold17_2_0_split -> BatchNorm13_2_Threshold17_2_0_split_1
I1109 23:04:56.516746  7692 net.cpp:122] Setting up BatchNorm13_2_Threshold17_2_0_split
I1109 23:04:56.517743  7692 net.cpp:129] Top shape: 1 32 128 80 (327680)
I1109 23:04:56.517743  7692 net.cpp:129] Top shape: 1 32 128 80 (327680)
I1109 23:04:56.517743  7692 net.cpp:137] Memory required for data: 77987840
I1109 23:04:56.517743  7692 layer_factory.cpp:80] Creating layer ConvNd18_2
I1109 23:04:56.517743  7692 net.cpp:84] Creating Layer ConvNd18_2
I1109 23:04:56.517743  7692 net.cpp:406] ConvNd18_2 <- BatchNorm13_2_Threshold17_2_0_split_0
I1109 23:04:56.517743  7692 net.cpp:380] ConvNd18_2 -> BatchNorm19_2
I1109 23:04:56.517743  7692 net.cpp:122] Setting up ConvNd18_2
I1109 23:04:56.517743  7692 net.cpp:129] Top shape: 1 64 128 80 (655360)
I1109 23:04:56.517743  7692 net.cpp:137] Memory required for data: 80609280
I1109 23:04:56.517743  7692 layer_factory.cpp:80] Creating layer Threshold20_2
I1109 23:04:56.517743  7692 net.cpp:84] Creating Layer Threshold20_2
I1109 23:04:56.517743  7692 net.cpp:406] Threshold20_2 <- BatchNorm19_2
I1109 23:04:56.517743  7692 net.cpp:367] Threshold20_2 -> BatchNorm19_2 (in-place)
I1109 23:04:56.517743  7692 net.cpp:122] Setting up Threshold20_2
I1109 23:04:56.517743  7692 net.cpp:129] Top shape: 1 64 128 80 (655360)
I1109 23:04:56.517743  7692 net.cpp:137] Memory required for data: 83230720
I1109 23:04:56.517743  7692 layer_factory.cpp:80] Creating layer ConvNd21_2
I1109 23:04:56.517743  7692 net.cpp:84] Creating Layer ConvNd21_2
I1109 23:04:56.517743  7692 net.cpp:406] ConvNd21_2 <- BatchNorm19_2
I1109 23:04:56.517743  7692 net.cpp:380] ConvNd21_2 -> BatchNorm22_2
I1109 23:04:56.517743  7692 net.cpp:122] Setting up ConvNd21_2
I1109 23:04:56.517743  7692 net.cpp:129] Top shape: 1 32 128 80 (327680)
I1109 23:04:56.517743  7692 net.cpp:137] Memory required for data: 84541440
I1109 23:04:56.517743  7692 layer_factory.cpp:80] Creating layer Threshold26_2
I1109 23:04:56.517743  7692 net.cpp:84] Creating Layer Threshold26_2
I1109 23:04:56.517743  7692 net.cpp:406] Threshold26_2 <- BatchNorm22_2
I1109 23:04:56.517743  7692 net.cpp:380] Threshold26_2 -> BatchNorm25_2
I1109 23:04:56.517743  7692 net.cpp:122] Setting up Threshold26_2
I1109 23:04:56.517743  7692 net.cpp:129] Top shape: 1 32 128 80 (327680)
I1109 23:04:56.517743  7692 net.cpp:137] Memory required for data: 85852160
I1109 23:04:56.517743  7692 layer_factory.cpp:80] Creating layer Concat24_2
I1109 23:04:56.517743  7692 net.cpp:84] Creating Layer Concat24_2
I1109 23:04:56.517743  7692 net.cpp:406] Concat24_2 <- BatchNorm5_2_Threshold8_2_0_split_1
I1109 23:04:56.517743  7692 net.cpp:406] Concat24_2 <- BatchNorm13_2_Threshold17_2_0_split_1
I1109 23:04:56.517743  7692 net.cpp:406] Concat24_2 <- BatchNorm25_2
I1109 23:04:56.517743  7692 net.cpp:406] Concat24_2 <- BatchNorm28_Threshold28__0_split_1
I1109 23:04:56.517743  7692 net.cpp:380] Concat24_2 -> Concat24_2
I1109 23:04:56.517743  7692 net.cpp:122] Setting up Concat24_2
I1109 23:04:56.517743  7692 net.cpp:129] Top shape: 1 192 128 80 (1966080)
I1109 23:04:56.517743  7692 net.cpp:137] Memory required for data: 93716480
I1109 23:04:56.517743  7692 layer_factory.cpp:80] Creating layer ConvNd27_2
I1109 23:04:56.517743  7692 net.cpp:84] Creating Layer ConvNd27_2
I1109 23:04:56.517743  7692 net.cpp:406] ConvNd27_2 <- Concat24_2
I1109 23:04:56.517743  7692 net.cpp:380] ConvNd27_2 -> BatchNorm28_2
I1109 23:04:56.517743  7692 net.cpp:122] Setting up ConvNd27_2
I1109 23:04:56.517743  7692 net.cpp:129] Top shape: 1 128 128 80 (1310720)
I1109 23:04:56.517743  7692 net.cpp:137] Memory required for data: 98959360
I1109 23:04:56.517743  7692 layer_factory.cpp:80] Creating layer Threshold28_2
I1109 23:04:56.517743  7692 net.cpp:84] Creating Layer Threshold28_2
I1109 23:04:56.517743  7692 net.cpp:406] Threshold28_2 <- BatchNorm28_2
I1109 23:04:56.517743  7692 net.cpp:367] Threshold28_2 -> BatchNorm28_2 (in-place)
I1109 23:04:56.517743  7692 net.cpp:122] Setting up Threshold28_2
I1109 23:04:56.518740  7692 net.cpp:129] Top shape: 1 128 128 80 (1310720)
I1109 23:04:56.518740  7692 net.cpp:137] Memory required for data: 104202240
I1109 23:04:56.518740  7692 layer_factory.cpp:80] Creating layer ConvNd29
I1109 23:04:56.518740  7692 net.cpp:84] Creating Layer ConvNd29
I1109 23:04:56.518740  7692 net.cpp:406] ConvNd29 <- BatchNorm28_2
I1109 23:04:56.518740  7692 net.cpp:380] ConvNd29 -> BatchNorm30
I1109 23:04:56.518740  7692 net.cpp:122] Setting up ConvNd29
I1109 23:04:56.518740  7692 net.cpp:129] Top shape: 1 128 64 40 (327680)
I1109 23:04:56.518740  7692 net.cpp:137] Memory required for data: 105512960
I1109 23:04:56.518740  7692 layer_factory.cpp:80] Creating layer Threshold33
I1109 23:04:56.518740  7692 net.cpp:84] Creating Layer Threshold33
I1109 23:04:56.518740  7692 net.cpp:406] Threshold33 <- BatchNorm30
I1109 23:04:56.518740  7692 net.cpp:380] Threshold33 -> BatchNorm30_
I1109 23:04:56.518740  7692 net.cpp:122] Setting up Threshold33
I1109 23:04:56.518740  7692 net.cpp:129] Top shape: 1 128 64 40 (327680)
I1109 23:04:56.518740  7692 net.cpp:137] Memory required for data: 106823680
I1109 23:04:56.518740  7692 layer_factory.cpp:80] Creating layer BatchNorm30__Threshold33_0_split
I1109 23:04:56.518740  7692 net.cpp:84] Creating Layer BatchNorm30__Threshold33_0_split
I1109 23:04:56.518740  7692 net.cpp:406] BatchNorm30__Threshold33_0_split <- BatchNorm30_
I1109 23:04:56.518740  7692 net.cpp:380] BatchNorm30__Threshold33_0_split -> BatchNorm30__Threshold33_0_split_0
I1109 23:04:56.518740  7692 net.cpp:380] BatchNorm30__Threshold33_0_split -> BatchNorm30__Threshold33_0_split_1
I1109 23:04:56.518740  7692 net.cpp:122] Setting up BatchNorm30__Threshold33_0_split
I1109 23:04:56.518740  7692 net.cpp:129] Top shape: 1 128 64 40 (327680)
I1109 23:04:56.518740  7692 net.cpp:129] Top shape: 1 128 64 40 (327680)
I1109 23:04:56.518740  7692 net.cpp:137] Memory required for data: 109445120
I1109 23:04:56.518740  7692 layer_factory.cpp:80] Creating layer ConvNd34
I1109 23:04:56.518740  7692 net.cpp:84] Creating Layer ConvNd34
I1109 23:04:56.518740  7692 net.cpp:406] ConvNd34 <- BatchNorm30__Threshold33_0_split_0
I1109 23:04:56.518740  7692 net.cpp:380] ConvNd34 -> BatchNorm35
I1109 23:04:56.518740  7692 net.cpp:122] Setting up ConvNd34
I1109 23:04:56.518740  7692 net.cpp:129] Top shape: 1 128 64 40 (327680)
I1109 23:04:56.518740  7692 net.cpp:137] Memory required for data: 110755840
I1109 23:04:56.518740  7692 layer_factory.cpp:80] Creating layer Threshold36
I1109 23:04:56.518740  7692 net.cpp:84] Creating Layer Threshold36
I1109 23:04:56.518740  7692 net.cpp:406] Threshold36 <- BatchNorm35
I1109 23:04:56.518740  7692 net.cpp:367] Threshold36 -> BatchNorm35 (in-place)
I1109 23:04:56.518740  7692 net.cpp:122] Setting up Threshold36
I1109 23:04:56.518740  7692 net.cpp:129] Top shape: 1 128 64 40 (327680)
I1109 23:04:56.518740  7692 net.cpp:137] Memory required for data: 112066560
I1109 23:04:56.518740  7692 layer_factory.cpp:80] Creating layer ConvNd37
I1109 23:04:56.518740  7692 net.cpp:84] Creating Layer ConvNd37
I1109 23:04:56.518740  7692 net.cpp:406] ConvNd37 <- BatchNorm35
I1109 23:04:56.518740  7692 net.cpp:380] ConvNd37 -> BatchNorm38
I1109 23:04:56.520735  7692 net.cpp:122] Setting up ConvNd37
I1109 23:04:56.520735  7692 net.cpp:129] Top shape: 1 64 64 40 (163840)
I1109 23:04:56.520735  7692 net.cpp:137] Memory required for data: 112721920
I1109 23:04:56.520735  7692 layer_factory.cpp:80] Creating layer Threshold42
I1109 23:04:56.520735  7692 net.cpp:84] Creating Layer Threshold42
I1109 23:04:56.520735  7692 net.cpp:406] Threshold42 <- BatchNorm38
I1109 23:04:56.520735  7692 net.cpp:380] Threshold42 -> BatchNorm38_
I1109 23:04:56.520735  7692 net.cpp:122] Setting up Threshold42
I1109 23:04:56.520735  7692 net.cpp:129] Top shape: 1 64 64 40 (163840)
I1109 23:04:56.520735  7692 net.cpp:137] Memory required for data: 113377280
I1109 23:04:56.520735  7692 layer_factory.cpp:80] Creating layer BatchNorm38__Threshold42_0_split
I1109 23:04:56.520735  7692 net.cpp:84] Creating Layer BatchNorm38__Threshold42_0_split
I1109 23:04:56.520735  7692 net.cpp:406] BatchNorm38__Threshold42_0_split <- BatchNorm38_
I1109 23:04:56.520735  7692 net.cpp:380] BatchNorm38__Threshold42_0_split -> BatchNorm38__Threshold42_0_split_0
I1109 23:04:56.520735  7692 net.cpp:380] BatchNorm38__Threshold42_0_split -> BatchNorm38__Threshold42_0_split_1
I1109 23:04:56.520735  7692 net.cpp:122] Setting up BatchNorm38__Threshold42_0_split
I1109 23:04:56.520735  7692 net.cpp:129] Top shape: 1 64 64 40 (163840)
I1109 23:04:56.520735  7692 net.cpp:129] Top shape: 1 64 64 40 (163840)
I1109 23:04:56.520735  7692 net.cpp:137] Memory required for data: 114688000
I1109 23:04:56.520735  7692 layer_factory.cpp:80] Creating layer ConvNd43
I1109 23:04:56.520735  7692 net.cpp:84] Creating Layer ConvNd43
I1109 23:04:56.520735  7692 net.cpp:406] ConvNd43 <- BatchNorm38__Threshold42_0_split_0
I1109 23:04:56.520735  7692 net.cpp:380] ConvNd43 -> BatchNorm44
I1109 23:04:56.520735  7692 net.cpp:122] Setting up ConvNd43
I1109 23:04:56.520735  7692 net.cpp:129] Top shape: 1 128 64 40 (327680)
I1109 23:04:56.520735  7692 net.cpp:137] Memory required for data: 115998720
I1109 23:04:56.520735  7692 layer_factory.cpp:80] Creating layer Threshold45
I1109 23:04:56.520735  7692 net.cpp:84] Creating Layer Threshold45
I1109 23:04:56.520735  7692 net.cpp:406] Threshold45 <- BatchNorm44
I1109 23:04:56.520735  7692 net.cpp:367] Threshold45 -> BatchNorm44 (in-place)
I1109 23:04:56.520735  7692 net.cpp:122] Setting up Threshold45
I1109 23:04:56.520735  7692 net.cpp:129] Top shape: 1 128 64 40 (327680)
I1109 23:04:56.520735  7692 net.cpp:137] Memory required for data: 117309440
I1109 23:04:56.520735  7692 layer_factory.cpp:80] Creating layer ConvNd46
I1109 23:04:56.520735  7692 net.cpp:84] Creating Layer ConvNd46
I1109 23:04:56.520735  7692 net.cpp:406] ConvNd46 <- BatchNorm44
I1109 23:04:56.520735  7692 net.cpp:380] ConvNd46 -> BatchNorm47
I1109 23:04:56.521732  7692 net.cpp:122] Setting up ConvNd46
I1109 23:04:56.521732  7692 net.cpp:129] Top shape: 1 64 64 40 (163840)
I1109 23:04:56.521732  7692 net.cpp:137] Memory required for data: 117964800
I1109 23:04:56.521732  7692 layer_factory.cpp:80] Creating layer Threshold51
I1109 23:04:56.521732  7692 net.cpp:84] Creating Layer Threshold51
I1109 23:04:56.521732  7692 net.cpp:406] Threshold51 <- BatchNorm47
I1109 23:04:56.521732  7692 net.cpp:380] Threshold51 -> BatchNorm50_
I1109 23:04:56.521732  7692 net.cpp:122] Setting up Threshold51
I1109 23:04:56.521732  7692 net.cpp:129] Top shape: 1 64 64 40 (163840)
I1109 23:04:56.521732  7692 net.cpp:137] Memory required for data: 118620160
I1109 23:04:56.521732  7692 layer_factory.cpp:80] Creating layer Concat49
I1109 23:04:56.521732  7692 net.cpp:84] Creating Layer Concat49
I1109 23:04:56.521732  7692 net.cpp:406] Concat49 <- BatchNorm30__Threshold33_0_split_1
I1109 23:04:56.521732  7692 net.cpp:406] Concat49 <- BatchNorm38__Threshold42_0_split_1
I1109 23:04:56.521732  7692 net.cpp:406] Concat49 <- BatchNorm50_
I1109 23:04:56.521732  7692 net.cpp:380] Concat49 -> Concat49
I1109 23:04:56.521732  7692 net.cpp:122] Setting up Concat49
I1109 23:04:56.521732  7692 net.cpp:129] Top shape: 1 256 64 40 (655360)
I1109 23:04:56.521732  7692 net.cpp:137] Memory required for data: 121241600
I1109 23:04:56.521732  7692 layer_factory.cpp:80] Creating layer ConvNd52
I1109 23:04:56.521732  7692 net.cpp:84] Creating Layer ConvNd52
I1109 23:04:56.521732  7692 net.cpp:406] ConvNd52 <- Concat49
I1109 23:04:56.521732  7692 net.cpp:380] ConvNd52 -> BatchNorm53
I1109 23:04:56.521732  7692 net.cpp:122] Setting up ConvNd52
I1109 23:04:56.521732  7692 net.cpp:129] Top shape: 1 128 64 40 (327680)
I1109 23:04:56.521732  7692 net.cpp:137] Memory required for data: 122552320
I1109 23:04:56.521732  7692 layer_factory.cpp:80] Creating layer Threshold53
I1109 23:04:56.521732  7692 net.cpp:84] Creating Layer Threshold53
I1109 23:04:56.521732  7692 net.cpp:406] Threshold53 <- BatchNorm53
I1109 23:04:56.521732  7692 net.cpp:367] Threshold53 -> BatchNorm53 (in-place)
I1109 23:04:56.521732  7692 net.cpp:122] Setting up Threshold53
I1109 23:04:56.521732  7692 net.cpp:129] Top shape: 1 128 64 40 (327680)
I1109 23:04:56.521732  7692 net.cpp:137] Memory required for data: 123863040
I1109 23:04:56.521732  7692 layer_factory.cpp:80] Creating layer BatchNorm53_Threshold53_0_split
I1109 23:04:56.521732  7692 net.cpp:84] Creating Layer BatchNorm53_Threshold53_0_split
I1109 23:04:56.521732  7692 net.cpp:406] BatchNorm53_Threshold53_0_split <- BatchNorm53
I1109 23:04:56.521732  7692 net.cpp:380] BatchNorm53_Threshold53_0_split -> BatchNorm53_Threshold53_0_split_0
I1109 23:04:56.521732  7692 net.cpp:380] BatchNorm53_Threshold53_0_split -> BatchNorm53_Threshold53_0_split_1
I1109 23:04:56.521732  7692 net.cpp:380] BatchNorm53_Threshold53_0_split -> BatchNorm53_Threshold53_0_split_2
I1109 23:04:56.521732  7692 net.cpp:122] Setting up BatchNorm53_Threshold53_0_split
I1109 23:04:56.521732  7692 net.cpp:129] Top shape: 1 128 64 40 (327680)
I1109 23:04:56.521732  7692 net.cpp:129] Top shape: 1 128 64 40 (327680)
I1109 23:04:56.521732  7692 net.cpp:129] Top shape: 1 128 64 40 (327680)
I1109 23:04:56.521732  7692 net.cpp:137] Memory required for data: 127795200
I1109 23:04:56.521732  7692 layer_factory.cpp:80] Creating layer ConvNd55
I1109 23:04:56.521732  7692 net.cpp:84] Creating Layer ConvNd55
I1109 23:04:56.521732  7692 net.cpp:406] ConvNd55 <- BatchNorm53_Threshold53_0_split_0
I1109 23:04:56.521732  7692 net.cpp:380] ConvNd55 -> BatchNorm56
I1109 23:04:56.522729  7692 net.cpp:122] Setting up ConvNd55
I1109 23:04:56.522729  7692 net.cpp:129] Top shape: 1 128 64 40 (327680)
I1109 23:04:56.522729  7692 net.cpp:137] Memory required for data: 129105920
I1109 23:04:56.522729  7692 layer_factory.cpp:80] Creating layer Threshold59
I1109 23:04:56.522729  7692 net.cpp:84] Creating Layer Threshold59
I1109 23:04:56.522729  7692 net.cpp:406] Threshold59 <- BatchNorm56
I1109 23:04:56.522729  7692 net.cpp:380] Threshold59 -> BatchNorm56_
I1109 23:04:56.522729  7692 net.cpp:122] Setting up Threshold59
I1109 23:04:56.522729  7692 net.cpp:129] Top shape: 1 128 64 40 (327680)
I1109 23:04:56.522729  7692 net.cpp:137] Memory required for data: 130416640
I1109 23:04:56.522729  7692 layer_factory.cpp:80] Creating layer BatchNorm56__Threshold59_0_split
I1109 23:04:56.522729  7692 net.cpp:84] Creating Layer BatchNorm56__Threshold59_0_split
I1109 23:04:56.522729  7692 net.cpp:406] BatchNorm56__Threshold59_0_split <- BatchNorm56_
I1109 23:04:56.522729  7692 net.cpp:380] BatchNorm56__Threshold59_0_split -> BatchNorm56__Threshold59_0_split_0
I1109 23:04:56.522729  7692 net.cpp:380] BatchNorm56__Threshold59_0_split -> BatchNorm56__Threshold59_0_split_1
I1109 23:04:56.522729  7692 net.cpp:122] Setting up BatchNorm56__Threshold59_0_split
I1109 23:04:56.522729  7692 net.cpp:129] Top shape: 1 128 64 40 (327680)
I1109 23:04:56.522729  7692 net.cpp:129] Top shape: 1 128 64 40 (327680)
I1109 23:04:56.522729  7692 net.cpp:137] Memory required for data: 133038080
I1109 23:04:56.522729  7692 layer_factory.cpp:80] Creating layer ConvNd60
I1109 23:04:56.522729  7692 net.cpp:84] Creating Layer ConvNd60
I1109 23:04:56.522729  7692 net.cpp:406] ConvNd60 <- BatchNorm56__Threshold59_0_split_0
I1109 23:04:56.522729  7692 net.cpp:380] ConvNd60 -> BatchNorm61
I1109 23:04:56.522729  7692 net.cpp:122] Setting up ConvNd60
I1109 23:04:56.522729  7692 net.cpp:129] Top shape: 1 128 64 40 (327680)
I1109 23:04:56.522729  7692 net.cpp:137] Memory required for data: 134348800
I1109 23:04:56.522729  7692 layer_factory.cpp:80] Creating layer Threshold62
I1109 23:04:56.522729  7692 net.cpp:84] Creating Layer Threshold62
I1109 23:04:56.522729  7692 net.cpp:406] Threshold62 <- BatchNorm61
I1109 23:04:56.522729  7692 net.cpp:367] Threshold62 -> BatchNorm61 (in-place)
I1109 23:04:56.522729  7692 net.cpp:122] Setting up Threshold62
I1109 23:04:56.522729  7692 net.cpp:129] Top shape: 1 128 64 40 (327680)
I1109 23:04:56.522729  7692 net.cpp:137] Memory required for data: 135659520
I1109 23:04:56.522729  7692 layer_factory.cpp:80] Creating layer ConvNd63
I1109 23:04:56.522729  7692 net.cpp:84] Creating Layer ConvNd63
I1109 23:04:56.522729  7692 net.cpp:406] ConvNd63 <- BatchNorm61
I1109 23:04:56.522729  7692 net.cpp:380] ConvNd63 -> BatchNorm64
I1109 23:04:56.523727  7692 net.cpp:122] Setting up ConvNd63
I1109 23:04:56.523727  7692 net.cpp:129] Top shape: 1 64 64 40 (163840)
I1109 23:04:56.523727  7692 net.cpp:137] Memory required for data: 136314880
I1109 23:04:56.523727  7692 layer_factory.cpp:80] Creating layer Threshold68
I1109 23:04:56.523727  7692 net.cpp:84] Creating Layer Threshold68
I1109 23:04:56.523727  7692 net.cpp:406] Threshold68 <- BatchNorm64
I1109 23:04:56.523727  7692 net.cpp:380] Threshold68 -> BatchNorm64_
I1109 23:04:56.523727  7692 net.cpp:122] Setting up Threshold68
I1109 23:04:56.523727  7692 net.cpp:129] Top shape: 1 64 64 40 (163840)
I1109 23:04:56.523727  7692 net.cpp:137] Memory required for data: 136970240
I1109 23:04:56.523727  7692 layer_factory.cpp:80] Creating layer BatchNorm64__Threshold68_0_split
I1109 23:04:56.523727  7692 net.cpp:84] Creating Layer BatchNorm64__Threshold68_0_split
I1109 23:04:56.523727  7692 net.cpp:406] BatchNorm64__Threshold68_0_split <- BatchNorm64_
I1109 23:04:56.523727  7692 net.cpp:380] BatchNorm64__Threshold68_0_split -> BatchNorm64__Threshold68_0_split_0
I1109 23:04:56.523727  7692 net.cpp:380] BatchNorm64__Threshold68_0_split -> BatchNorm64__Threshold68_0_split_1
I1109 23:04:56.523727  7692 net.cpp:122] Setting up BatchNorm64__Threshold68_0_split
I1109 23:04:56.523727  7692 net.cpp:129] Top shape: 1 64 64 40 (163840)
I1109 23:04:56.523727  7692 net.cpp:129] Top shape: 1 64 64 40 (163840)
I1109 23:04:56.523727  7692 net.cpp:137] Memory required for data: 138280960
I1109 23:04:56.523727  7692 layer_factory.cpp:80] Creating layer ConvNd69
I1109 23:04:56.523727  7692 net.cpp:84] Creating Layer ConvNd69
I1109 23:04:56.523727  7692 net.cpp:406] ConvNd69 <- BatchNorm64__Threshold68_0_split_0
I1109 23:04:56.523727  7692 net.cpp:380] ConvNd69 -> BatchNorm70
I1109 23:04:56.523727  7692 net.cpp:122] Setting up ConvNd69
I1109 23:04:56.523727  7692 net.cpp:129] Top shape: 1 128 64 40 (327680)
I1109 23:04:56.523727  7692 net.cpp:137] Memory required for data: 139591680
I1109 23:04:56.523727  7692 layer_factory.cpp:80] Creating layer Threshold71
I1109 23:04:56.523727  7692 net.cpp:84] Creating Layer Threshold71
I1109 23:04:56.523727  7692 net.cpp:406] Threshold71 <- BatchNorm70
I1109 23:04:56.523727  7692 net.cpp:367] Threshold71 -> BatchNorm70 (in-place)
I1109 23:04:56.523727  7692 net.cpp:122] Setting up Threshold71
I1109 23:04:56.523727  7692 net.cpp:129] Top shape: 1 128 64 40 (327680)
I1109 23:04:56.523727  7692 net.cpp:137] Memory required for data: 140902400
I1109 23:04:56.523727  7692 layer_factory.cpp:80] Creating layer ConvNd72
I1109 23:04:56.523727  7692 net.cpp:84] Creating Layer ConvNd72
I1109 23:04:56.523727  7692 net.cpp:406] ConvNd72 <- BatchNorm70
I1109 23:04:56.523727  7692 net.cpp:380] ConvNd72 -> BatchNorm73
I1109 23:04:56.524724  7692 net.cpp:122] Setting up ConvNd72
I1109 23:04:56.524724  7692 net.cpp:129] Top shape: 1 64 64 40 (163840)
I1109 23:04:56.524724  7692 net.cpp:137] Memory required for data: 141557760
I1109 23:04:56.524724  7692 layer_factory.cpp:80] Creating layer Threshold77
I1109 23:04:56.524724  7692 net.cpp:84] Creating Layer Threshold77
I1109 23:04:56.524724  7692 net.cpp:406] Threshold77 <- BatchNorm73
I1109 23:04:56.524724  7692 net.cpp:380] Threshold77 -> BatchNorm76_
I1109 23:04:56.524724  7692 net.cpp:122] Setting up Threshold77
I1109 23:04:56.524724  7692 net.cpp:129] Top shape: 1 64 64 40 (163840)
I1109 23:04:56.524724  7692 net.cpp:137] Memory required for data: 142213120
I1109 23:04:56.524724  7692 layer_factory.cpp:80] Creating layer Concat75
I1109 23:04:56.524724  7692 net.cpp:84] Creating Layer Concat75
I1109 23:04:56.524724  7692 net.cpp:406] Concat75 <- BatchNorm56__Threshold59_0_split_1
I1109 23:04:56.524724  7692 net.cpp:406] Concat75 <- BatchNorm64__Threshold68_0_split_1
I1109 23:04:56.524724  7692 net.cpp:406] Concat75 <- BatchNorm76_
I1109 23:04:56.524724  7692 net.cpp:406] Concat75 <- BatchNorm53_Threshold53_0_split_1
I1109 23:04:56.524724  7692 net.cpp:380] Concat75 -> Concat75
I1109 23:04:56.524724  7692 net.cpp:122] Setting up Concat75
I1109 23:04:56.524724  7692 net.cpp:129] Top shape: 1 384 64 40 (983040)
I1109 23:04:56.524724  7692 net.cpp:137] Memory required for data: 146145280
I1109 23:04:56.524724  7692 layer_factory.cpp:80] Creating layer ConvNd78
I1109 23:04:56.524724  7692 net.cpp:84] Creating Layer ConvNd78
I1109 23:04:56.524724  7692 net.cpp:406] ConvNd78 <- Concat75
I1109 23:04:56.524724  7692 net.cpp:380] ConvNd78 -> BatchNorm79
I1109 23:04:56.524724  7692 net.cpp:122] Setting up ConvNd78
I1109 23:04:56.524724  7692 net.cpp:129] Top shape: 1 128 64 40 (327680)
I1109 23:04:56.524724  7692 net.cpp:137] Memory required for data: 147456000
I1109 23:04:56.524724  7692 layer_factory.cpp:80] Creating layer Threshold79
I1109 23:04:56.524724  7692 net.cpp:84] Creating Layer Threshold79
I1109 23:04:56.524724  7692 net.cpp:406] Threshold79 <- BatchNorm79
I1109 23:04:56.524724  7692 net.cpp:367] Threshold79 -> BatchNorm79 (in-place)
I1109 23:04:56.524724  7692 net.cpp:122] Setting up Threshold79
I1109 23:04:56.524724  7692 net.cpp:129] Top shape: 1 128 64 40 (327680)
I1109 23:04:56.524724  7692 net.cpp:137] Memory required for data: 148766720
I1109 23:04:56.524724  7692 layer_factory.cpp:80] Creating layer ConvNd82
I1109 23:04:56.524724  7692 net.cpp:84] Creating Layer ConvNd82
I1109 23:04:56.524724  7692 net.cpp:406] ConvNd82 <- BatchNorm79
I1109 23:04:56.524724  7692 net.cpp:380] ConvNd82 -> BatchNorm83
I1109 23:04:56.525722  7692 net.cpp:122] Setting up ConvNd82
I1109 23:04:56.525722  7692 net.cpp:129] Top shape: 1 128 64 40 (327680)
I1109 23:04:56.525722  7692 net.cpp:137] Memory required for data: 150077440
I1109 23:04:56.525722  7692 layer_factory.cpp:80] Creating layer Threshold86
I1109 23:04:56.525722  7692 net.cpp:84] Creating Layer Threshold86
I1109 23:04:56.525722  7692 net.cpp:406] Threshold86 <- BatchNorm83
I1109 23:04:56.525722  7692 net.cpp:380] Threshold86 -> BatchNorm83_
I1109 23:04:56.525722  7692 net.cpp:122] Setting up Threshold86
I1109 23:04:56.525722  7692 net.cpp:129] Top shape: 1 128 64 40 (327680)
I1109 23:04:56.525722  7692 net.cpp:137] Memory required for data: 151388160
I1109 23:04:56.525722  7692 layer_factory.cpp:80] Creating layer BatchNorm83__Threshold86_0_split
I1109 23:04:56.525722  7692 net.cpp:84] Creating Layer BatchNorm83__Threshold86_0_split
I1109 23:04:56.525722  7692 net.cpp:406] BatchNorm83__Threshold86_0_split <- BatchNorm83_
I1109 23:04:56.525722  7692 net.cpp:380] BatchNorm83__Threshold86_0_split -> BatchNorm83__Threshold86_0_split_0
I1109 23:04:56.525722  7692 net.cpp:380] BatchNorm83__Threshold86_0_split -> BatchNorm83__Threshold86_0_split_1
I1109 23:04:56.525722  7692 net.cpp:122] Setting up BatchNorm83__Threshold86_0_split
I1109 23:04:56.525722  7692 net.cpp:129] Top shape: 1 128 64 40 (327680)
I1109 23:04:56.525722  7692 net.cpp:129] Top shape: 1 128 64 40 (327680)
I1109 23:04:56.525722  7692 net.cpp:137] Memory required for data: 154009600
I1109 23:04:56.525722  7692 layer_factory.cpp:80] Creating layer ConvNd87
I1109 23:04:56.525722  7692 net.cpp:84] Creating Layer ConvNd87
I1109 23:04:56.525722  7692 net.cpp:406] ConvNd87 <- BatchNorm83__Threshold86_0_split_0
I1109 23:04:56.525722  7692 net.cpp:380] ConvNd87 -> BatchNorm88
I1109 23:04:56.526719  7692 net.cpp:122] Setting up ConvNd87
I1109 23:04:56.526719  7692 net.cpp:129] Top shape: 1 128 64 40 (327680)
I1109 23:04:56.526719  7692 net.cpp:137] Memory required for data: 155320320
I1109 23:04:56.526719  7692 layer_factory.cpp:80] Creating layer Threshold89
I1109 23:04:56.526719  7692 net.cpp:84] Creating Layer Threshold89
I1109 23:04:56.526719  7692 net.cpp:406] Threshold89 <- BatchNorm88
I1109 23:04:56.526719  7692 net.cpp:367] Threshold89 -> BatchNorm88 (in-place)
I1109 23:04:56.526719  7692 net.cpp:122] Setting up Threshold89
I1109 23:04:56.526719  7692 net.cpp:129] Top shape: 1 128 64 40 (327680)
I1109 23:04:56.526719  7692 net.cpp:137] Memory required for data: 156631040
I1109 23:04:56.526719  7692 layer_factory.cpp:80] Creating layer ConvNd90
I1109 23:04:56.526719  7692 net.cpp:84] Creating Layer ConvNd90
I1109 23:04:56.526719  7692 net.cpp:406] ConvNd90 <- BatchNorm88
I1109 23:04:56.526719  7692 net.cpp:380] ConvNd90 -> BatchNorm91
I1109 23:04:56.526719  7692 net.cpp:122] Setting up ConvNd90
I1109 23:04:56.526719  7692 net.cpp:129] Top shape: 1 64 64 40 (163840)
I1109 23:04:56.526719  7692 net.cpp:137] Memory required for data: 157286400
I1109 23:04:56.526719  7692 layer_factory.cpp:80] Creating layer Threshold95
I1109 23:04:56.526719  7692 net.cpp:84] Creating Layer Threshold95
I1109 23:04:56.526719  7692 net.cpp:406] Threshold95 <- BatchNorm91
I1109 23:04:56.526719  7692 net.cpp:380] Threshold95 -> BatchNorm91_
I1109 23:04:56.526719  7692 net.cpp:122] Setting up Threshold95
I1109 23:04:56.526719  7692 net.cpp:129] Top shape: 1 64 64 40 (163840)
I1109 23:04:56.526719  7692 net.cpp:137] Memory required for data: 157941760
I1109 23:04:56.526719  7692 layer_factory.cpp:80] Creating layer BatchNorm91__Threshold95_0_split
I1109 23:04:56.526719  7692 net.cpp:84] Creating Layer BatchNorm91__Threshold95_0_split
I1109 23:04:56.526719  7692 net.cpp:406] BatchNorm91__Threshold95_0_split <- BatchNorm91_
I1109 23:04:56.526719  7692 net.cpp:380] BatchNorm91__Threshold95_0_split -> BatchNorm91__Threshold95_0_split_0
I1109 23:04:56.526719  7692 net.cpp:380] BatchNorm91__Threshold95_0_split -> BatchNorm91__Threshold95_0_split_1
I1109 23:04:56.526719  7692 net.cpp:122] Setting up BatchNorm91__Threshold95_0_split
I1109 23:04:56.526719  7692 net.cpp:129] Top shape: 1 64 64 40 (163840)
I1109 23:04:56.527716  7692 net.cpp:129] Top shape: 1 64 64 40 (163840)
I1109 23:04:56.527716  7692 net.cpp:137] Memory required for data: 159252480
I1109 23:04:56.527716  7692 layer_factory.cpp:80] Creating layer ConvNd96
I1109 23:04:56.527716  7692 net.cpp:84] Creating Layer ConvNd96
I1109 23:04:56.527716  7692 net.cpp:406] ConvNd96 <- BatchNorm91__Threshold95_0_split_0
I1109 23:04:56.527716  7692 net.cpp:380] ConvNd96 -> BatchNorm97
I1109 23:04:56.527716  7692 net.cpp:122] Setting up ConvNd96
I1109 23:04:56.527716  7692 net.cpp:129] Top shape: 1 128 64 40 (327680)
I1109 23:04:56.527716  7692 net.cpp:137] Memory required for data: 160563200
I1109 23:04:56.527716  7692 layer_factory.cpp:80] Creating layer Threshold98
I1109 23:04:56.527716  7692 net.cpp:84] Creating Layer Threshold98
I1109 23:04:56.527716  7692 net.cpp:406] Threshold98 <- BatchNorm97
I1109 23:04:56.527716  7692 net.cpp:367] Threshold98 -> BatchNorm97 (in-place)
I1109 23:04:56.527716  7692 net.cpp:122] Setting up Threshold98
I1109 23:04:56.527716  7692 net.cpp:129] Top shape: 1 128 64 40 (327680)
I1109 23:04:56.527716  7692 net.cpp:137] Memory required for data: 161873920
I1109 23:04:56.527716  7692 layer_factory.cpp:80] Creating layer ConvNd99
I1109 23:04:56.527716  7692 net.cpp:84] Creating Layer ConvNd99
I1109 23:04:56.527716  7692 net.cpp:406] ConvNd99 <- BatchNorm97
I1109 23:04:56.527716  7692 net.cpp:380] ConvNd99 -> BatchNorm100
I1109 23:04:56.527716  7692 net.cpp:122] Setting up ConvNd99
I1109 23:04:56.527716  7692 net.cpp:129] Top shape: 1 64 64 40 (163840)
I1109 23:04:56.527716  7692 net.cpp:137] Memory required for data: 162529280
I1109 23:04:56.527716  7692 layer_factory.cpp:80] Creating layer Threshold104
I1109 23:04:56.527716  7692 net.cpp:84] Creating Layer Threshold104
I1109 23:04:56.527716  7692 net.cpp:406] Threshold104 <- BatchNorm100
I1109 23:04:56.527716  7692 net.cpp:380] Threshold104 -> BatchNorm103_
I1109 23:04:56.527716  7692 net.cpp:122] Setting up Threshold104
I1109 23:04:56.527716  7692 net.cpp:129] Top shape: 1 64 64 40 (163840)
I1109 23:04:56.527716  7692 net.cpp:137] Memory required for data: 163184640
I1109 23:04:56.527716  7692 layer_factory.cpp:80] Creating layer Concat102
I1109 23:04:56.527716  7692 net.cpp:84] Creating Layer Concat102
I1109 23:04:56.527716  7692 net.cpp:406] Concat102 <- BatchNorm83__Threshold86_0_split_1
I1109 23:04:56.527716  7692 net.cpp:406] Concat102 <- BatchNorm91__Threshold95_0_split_1
I1109 23:04:56.527716  7692 net.cpp:406] Concat102 <- BatchNorm103_
I1109 23:04:56.527716  7692 net.cpp:406] Concat102 <- BatchNorm53_Threshold53_0_split_2
I1109 23:04:56.527716  7692 net.cpp:380] Concat102 -> Concat102
I1109 23:04:56.527716  7692 net.cpp:122] Setting up Concat102
I1109 23:04:56.527716  7692 net.cpp:129] Top shape: 1 384 64 40 (983040)
I1109 23:04:56.527716  7692 net.cpp:137] Memory required for data: 167116800
I1109 23:04:56.527716  7692 layer_factory.cpp:80] Creating layer ConvNd105
I1109 23:04:56.527716  7692 net.cpp:84] Creating Layer ConvNd105
I1109 23:04:56.527716  7692 net.cpp:406] ConvNd105 <- Concat102
I1109 23:04:56.527716  7692 net.cpp:380] ConvNd105 -> BatchNorm106
I1109 23:04:56.528713  7692 net.cpp:122] Setting up ConvNd105
I1109 23:04:56.528713  7692 net.cpp:129] Top shape: 1 288 64 40 (737280)
I1109 23:04:56.528713  7692 net.cpp:137] Memory required for data: 170065920
I1109 23:04:56.528713  7692 layer_factory.cpp:80] Creating layer Threshold106
I1109 23:04:56.528713  7692 net.cpp:84] Creating Layer Threshold106
I1109 23:04:56.528713  7692 net.cpp:406] Threshold106 <- BatchNorm106
I1109 23:04:56.528713  7692 net.cpp:367] Threshold106 -> BatchNorm106 (in-place)
I1109 23:04:56.528713  7692 net.cpp:122] Setting up Threshold106
I1109 23:04:56.528713  7692 net.cpp:129] Top shape: 1 288 64 40 (737280)
I1109 23:04:56.528713  7692 net.cpp:137] Memory required for data: 173015040
I1109 23:04:56.528713  7692 layer_factory.cpp:80] Creating layer ConvNd108
I1109 23:04:56.528713  7692 net.cpp:84] Creating Layer ConvNd108
I1109 23:04:56.528713  7692 net.cpp:406] ConvNd108 <- BatchNorm106
I1109 23:04:56.528713  7692 net.cpp:380] ConvNd108 -> BatchNorm109
I1109 23:04:56.529711  7692 net.cpp:122] Setting up ConvNd108
I1109 23:04:56.529711  7692 net.cpp:129] Top shape: 1 288 32 20 (184320)
I1109 23:04:56.529711  7692 net.cpp:137] Memory required for data: 173752320
I1109 23:04:56.529711  7692 layer_factory.cpp:80] Creating layer Threshold112
I1109 23:04:56.529711  7692 net.cpp:84] Creating Layer Threshold112
I1109 23:04:56.529711  7692 net.cpp:406] Threshold112 <- BatchNorm109
I1109 23:04:56.529711  7692 net.cpp:380] Threshold112 -> BatchNorm109_
I1109 23:04:56.529711  7692 net.cpp:122] Setting up Threshold112
I1109 23:04:56.529711  7692 net.cpp:129] Top shape: 1 288 32 20 (184320)
I1109 23:04:56.529711  7692 net.cpp:137] Memory required for data: 174489600
I1109 23:04:56.529711  7692 layer_factory.cpp:80] Creating layer BatchNorm109__Threshold112_0_split
I1109 23:04:56.529711  7692 net.cpp:84] Creating Layer BatchNorm109__Threshold112_0_split
I1109 23:04:56.529711  7692 net.cpp:406] BatchNorm109__Threshold112_0_split <- BatchNorm109_
I1109 23:04:56.529711  7692 net.cpp:380] BatchNorm109__Threshold112_0_split -> BatchNorm109__Threshold112_0_split_0
I1109 23:04:56.529711  7692 net.cpp:380] BatchNorm109__Threshold112_0_split -> BatchNorm109__Threshold112_0_split_1
I1109 23:04:56.529711  7692 net.cpp:122] Setting up BatchNorm109__Threshold112_0_split
I1109 23:04:56.529711  7692 net.cpp:129] Top shape: 1 288 32 20 (184320)
I1109 23:04:56.529711  7692 net.cpp:129] Top shape: 1 288 32 20 (184320)
I1109 23:04:56.529711  7692 net.cpp:137] Memory required for data: 175964160
I1109 23:04:56.529711  7692 layer_factory.cpp:80] Creating layer ConvNd113
I1109 23:04:56.529711  7692 net.cpp:84] Creating Layer ConvNd113
I1109 23:04:56.529711  7692 net.cpp:406] ConvNd113 <- BatchNorm109__Threshold112_0_split_0
I1109 23:04:56.529711  7692 net.cpp:380] ConvNd113 -> BatchNorm114
I1109 23:04:56.530709  7692 net.cpp:122] Setting up ConvNd113
I1109 23:04:56.530709  7692 net.cpp:129] Top shape: 1 288 32 20 (184320)
I1109 23:04:56.530709  7692 net.cpp:137] Memory required for data: 176701440
I1109 23:04:56.530709  7692 layer_factory.cpp:80] Creating layer Threshold115
I1109 23:04:56.530709  7692 net.cpp:84] Creating Layer Threshold115
I1109 23:04:56.530709  7692 net.cpp:406] Threshold115 <- BatchNorm114
I1109 23:04:56.530709  7692 net.cpp:367] Threshold115 -> BatchNorm114 (in-place)
I1109 23:04:56.530709  7692 net.cpp:122] Setting up Threshold115
I1109 23:04:56.530709  7692 net.cpp:129] Top shape: 1 288 32 20 (184320)
I1109 23:04:56.530709  7692 net.cpp:137] Memory required for data: 177438720
I1109 23:04:56.530709  7692 layer_factory.cpp:80] Creating layer ConvNd116
I1109 23:04:56.530709  7692 net.cpp:84] Creating Layer ConvNd116
I1109 23:04:56.530709  7692 net.cpp:406] ConvNd116 <- BatchNorm114
I1109 23:04:56.530709  7692 net.cpp:380] ConvNd116 -> BatchNorm117
I1109 23:04:56.532703  7692 net.cpp:122] Setting up ConvNd116
I1109 23:04:56.532703  7692 net.cpp:129] Top shape: 1 144 32 20 (92160)
I1109 23:04:56.532703  7692 net.cpp:137] Memory required for data: 177807360
I1109 23:04:56.532703  7692 layer_factory.cpp:80] Creating layer Threshold121
I1109 23:04:56.532703  7692 net.cpp:84] Creating Layer Threshold121
I1109 23:04:56.532703  7692 net.cpp:406] Threshold121 <- BatchNorm117
I1109 23:04:56.532703  7692 net.cpp:380] Threshold121 -> BatchNorm117_
I1109 23:04:56.532703  7692 net.cpp:122] Setting up Threshold121
I1109 23:04:56.532703  7692 net.cpp:129] Top shape: 1 144 32 20 (92160)
I1109 23:04:56.532703  7692 net.cpp:137] Memory required for data: 178176000
I1109 23:04:56.532703  7692 layer_factory.cpp:80] Creating layer BatchNorm117__Threshold121_0_split
I1109 23:04:56.532703  7692 net.cpp:84] Creating Layer BatchNorm117__Threshold121_0_split
I1109 23:04:56.532703  7692 net.cpp:406] BatchNorm117__Threshold121_0_split <- BatchNorm117_
I1109 23:04:56.532703  7692 net.cpp:380] BatchNorm117__Threshold121_0_split -> BatchNorm117__Threshold121_0_split_0
I1109 23:04:56.532703  7692 net.cpp:380] BatchNorm117__Threshold121_0_split -> BatchNorm117__Threshold121_0_split_1
I1109 23:04:56.532703  7692 net.cpp:122] Setting up BatchNorm117__Threshold121_0_split
I1109 23:04:56.532703  7692 net.cpp:129] Top shape: 1 144 32 20 (92160)
I1109 23:04:56.532703  7692 net.cpp:129] Top shape: 1 144 32 20 (92160)
I1109 23:04:56.532703  7692 net.cpp:137] Memory required for data: 178913280
I1109 23:04:56.532703  7692 layer_factory.cpp:80] Creating layer ConvNd122
I1109 23:04:56.532703  7692 net.cpp:84] Creating Layer ConvNd122
I1109 23:04:56.532703  7692 net.cpp:406] ConvNd122 <- BatchNorm117__Threshold121_0_split_0
I1109 23:04:56.532703  7692 net.cpp:380] ConvNd122 -> BatchNorm123
I1109 23:04:56.532703  7692 net.cpp:122] Setting up ConvNd122
I1109 23:04:56.532703  7692 net.cpp:129] Top shape: 1 288 32 20 (184320)
I1109 23:04:56.532703  7692 net.cpp:137] Memory required for data: 179650560
I1109 23:04:56.532703  7692 layer_factory.cpp:80] Creating layer Threshold124
I1109 23:04:56.532703  7692 net.cpp:84] Creating Layer Threshold124
I1109 23:04:56.532703  7692 net.cpp:406] Threshold124 <- BatchNorm123
I1109 23:04:56.532703  7692 net.cpp:367] Threshold124 -> BatchNorm123 (in-place)
I1109 23:04:56.532703  7692 net.cpp:122] Setting up Threshold124
I1109 23:04:56.532703  7692 net.cpp:129] Top shape: 1 288 32 20 (184320)
I1109 23:04:56.532703  7692 net.cpp:137] Memory required for data: 180387840
I1109 23:04:56.532703  7692 layer_factory.cpp:80] Creating layer ConvNd125
I1109 23:04:56.532703  7692 net.cpp:84] Creating Layer ConvNd125
I1109 23:04:56.532703  7692 net.cpp:406] ConvNd125 <- BatchNorm123
I1109 23:04:56.532703  7692 net.cpp:380] ConvNd125 -> BatchNorm126
I1109 23:04:56.533700  7692 net.cpp:122] Setting up ConvNd125
I1109 23:04:56.533700  7692 net.cpp:129] Top shape: 1 144 32 20 (92160)
I1109 23:04:56.533700  7692 net.cpp:137] Memory required for data: 180756480
I1109 23:04:56.533700  7692 layer_factory.cpp:80] Creating layer Threshold130
I1109 23:04:56.533700  7692 net.cpp:84] Creating Layer Threshold130
I1109 23:04:56.533700  7692 net.cpp:406] Threshold130 <- BatchNorm126
I1109 23:04:56.533700  7692 net.cpp:380] Threshold130 -> BatchNorm129_
I1109 23:04:56.533700  7692 net.cpp:122] Setting up Threshold130
I1109 23:04:56.533700  7692 net.cpp:129] Top shape: 1 144 32 20 (92160)
I1109 23:04:56.533700  7692 net.cpp:137] Memory required for data: 181125120
I1109 23:04:56.533700  7692 layer_factory.cpp:80] Creating layer Concat128
I1109 23:04:56.533700  7692 net.cpp:84] Creating Layer Concat128
I1109 23:04:56.533700  7692 net.cpp:406] Concat128 <- BatchNorm109__Threshold112_0_split_1
I1109 23:04:56.533700  7692 net.cpp:406] Concat128 <- BatchNorm117__Threshold121_0_split_1
I1109 23:04:56.533700  7692 net.cpp:406] Concat128 <- BatchNorm129_
I1109 23:04:56.533700  7692 net.cpp:380] Concat128 -> Concat128
I1109 23:04:56.533700  7692 net.cpp:122] Setting up Concat128
I1109 23:04:56.533700  7692 net.cpp:129] Top shape: 1 576 32 20 (368640)
I1109 23:04:56.533700  7692 net.cpp:137] Memory required for data: 182599680
I1109 23:04:56.533700  7692 layer_factory.cpp:80] Creating layer ConvNd131
I1109 23:04:56.533700  7692 net.cpp:84] Creating Layer ConvNd131
I1109 23:04:56.533700  7692 net.cpp:406] ConvNd131 <- Concat128
I1109 23:04:56.533700  7692 net.cpp:380] ConvNd131 -> BatchNorm132
I1109 23:04:56.535696  7692 net.cpp:122] Setting up ConvNd131
I1109 23:04:56.535696  7692 net.cpp:129] Top shape: 1 288 32 20 (184320)
I1109 23:04:56.535696  7692 net.cpp:137] Memory required for data: 183336960
I1109 23:04:56.535696  7692 layer_factory.cpp:80] Creating layer Threshold132
I1109 23:04:56.535696  7692 net.cpp:84] Creating Layer Threshold132
I1109 23:04:56.535696  7692 net.cpp:406] Threshold132 <- BatchNorm132
I1109 23:04:56.535696  7692 net.cpp:367] Threshold132 -> BatchNorm132 (in-place)
I1109 23:04:56.535696  7692 net.cpp:122] Setting up Threshold132
I1109 23:04:56.535696  7692 net.cpp:129] Top shape: 1 288 32 20 (184320)
I1109 23:04:56.535696  7692 net.cpp:137] Memory required for data: 184074240
I1109 23:04:56.535696  7692 layer_factory.cpp:80] Creating layer BatchNorm132_Threshold132_0_split
I1109 23:04:56.535696  7692 net.cpp:84] Creating Layer BatchNorm132_Threshold132_0_split
I1109 23:04:56.535696  7692 net.cpp:406] BatchNorm132_Threshold132_0_split <- BatchNorm132
I1109 23:04:56.535696  7692 net.cpp:380] BatchNorm132_Threshold132_0_split -> BatchNorm132_Threshold132_0_split_0
I1109 23:04:56.535696  7692 net.cpp:380] BatchNorm132_Threshold132_0_split -> BatchNorm132_Threshold132_0_split_1
I1109 23:04:56.535696  7692 net.cpp:380] BatchNorm132_Threshold132_0_split -> BatchNorm132_Threshold132_0_split_2
I1109 23:04:56.535696  7692 net.cpp:380] BatchNorm132_Threshold132_0_split -> BatchNorm132_Threshold132_0_split_3
I1109 23:04:56.535696  7692 net.cpp:122] Setting up BatchNorm132_Threshold132_0_split
I1109 23:04:56.535696  7692 net.cpp:129] Top shape: 1 288 32 20 (184320)
I1109 23:04:56.535696  7692 net.cpp:129] Top shape: 1 288 32 20 (184320)
I1109 23:04:56.535696  7692 net.cpp:129] Top shape: 1 288 32 20 (184320)
I1109 23:04:56.535696  7692 net.cpp:129] Top shape: 1 288 32 20 (184320)
I1109 23:04:56.535696  7692 net.cpp:137] Memory required for data: 187023360
I1109 23:04:56.535696  7692 layer_factory.cpp:80] Creating layer ConvNd134
I1109 23:04:56.535696  7692 net.cpp:84] Creating Layer ConvNd134
I1109 23:04:56.535696  7692 net.cpp:406] ConvNd134 <- BatchNorm132_Threshold132_0_split_0
I1109 23:04:56.535696  7692 net.cpp:380] ConvNd134 -> BatchNorm135
I1109 23:04:56.536692  7692 net.cpp:122] Setting up ConvNd134
I1109 23:04:56.536692  7692 net.cpp:129] Top shape: 1 288 32 20 (184320)
I1109 23:04:56.536692  7692 net.cpp:137] Memory required for data: 187760640
I1109 23:04:56.536692  7692 layer_factory.cpp:80] Creating layer Threshold138
I1109 23:04:56.536692  7692 net.cpp:84] Creating Layer Threshold138
I1109 23:04:56.536692  7692 net.cpp:406] Threshold138 <- BatchNorm135
I1109 23:04:56.536692  7692 net.cpp:380] Threshold138 -> BatchNorm135_
I1109 23:04:56.536692  7692 net.cpp:122] Setting up Threshold138
I1109 23:04:56.536692  7692 net.cpp:129] Top shape: 1 288 32 20 (184320)
I1109 23:04:56.536692  7692 net.cpp:137] Memory required for data: 188497920
I1109 23:04:56.536692  7692 layer_factory.cpp:80] Creating layer BatchNorm135__Threshold138_0_split
I1109 23:04:56.536692  7692 net.cpp:84] Creating Layer BatchNorm135__Threshold138_0_split
I1109 23:04:56.536692  7692 net.cpp:406] BatchNorm135__Threshold138_0_split <- BatchNorm135_
I1109 23:04:56.536692  7692 net.cpp:380] BatchNorm135__Threshold138_0_split -> BatchNorm135__Threshold138_0_split_0
I1109 23:04:56.536692  7692 net.cpp:380] BatchNorm135__Threshold138_0_split -> BatchNorm135__Threshold138_0_split_1
I1109 23:04:56.537689  7692 net.cpp:122] Setting up BatchNorm135__Threshold138_0_split
I1109 23:04:56.537689  7692 net.cpp:129] Top shape: 1 288 32 20 (184320)
I1109 23:04:56.537689  7692 net.cpp:129] Top shape: 1 288 32 20 (184320)
I1109 23:04:56.537689  7692 net.cpp:137] Memory required for data: 189972480
I1109 23:04:56.537689  7692 layer_factory.cpp:80] Creating layer ConvNd139
I1109 23:04:56.537689  7692 net.cpp:84] Creating Layer ConvNd139
I1109 23:04:56.537689  7692 net.cpp:406] ConvNd139 <- BatchNorm135__Threshold138_0_split_0
I1109 23:04:56.537689  7692 net.cpp:380] ConvNd139 -> BatchNorm140
I1109 23:04:56.537689  7692 net.cpp:122] Setting up ConvNd139
I1109 23:04:56.537689  7692 net.cpp:129] Top shape: 1 288 32 20 (184320)
I1109 23:04:56.537689  7692 net.cpp:137] Memory required for data: 190709760
I1109 23:04:56.537689  7692 layer_factory.cpp:80] Creating layer Threshold141
I1109 23:04:56.537689  7692 net.cpp:84] Creating Layer Threshold141
I1109 23:04:56.537689  7692 net.cpp:406] Threshold141 <- BatchNorm140
I1109 23:04:56.537689  7692 net.cpp:367] Threshold141 -> BatchNorm140 (in-place)
I1109 23:04:56.537689  7692 net.cpp:122] Setting up Threshold141
I1109 23:04:56.537689  7692 net.cpp:129] Top shape: 1 288 32 20 (184320)
I1109 23:04:56.537689  7692 net.cpp:137] Memory required for data: 191447040
I1109 23:04:56.537689  7692 layer_factory.cpp:80] Creating layer ConvNd142
I1109 23:04:56.537689  7692 net.cpp:84] Creating Layer ConvNd142
I1109 23:04:56.537689  7692 net.cpp:406] ConvNd142 <- BatchNorm140
I1109 23:04:56.537689  7692 net.cpp:380] ConvNd142 -> BatchNorm143
I1109 23:04:56.539685  7692 net.cpp:122] Setting up ConvNd142
I1109 23:04:56.539685  7692 net.cpp:129] Top shape: 1 144 32 20 (92160)
I1109 23:04:56.539685  7692 net.cpp:137] Memory required for data: 191815680
I1109 23:04:56.539685  7692 layer_factory.cpp:80] Creating layer Threshold147
I1109 23:04:56.539685  7692 net.cpp:84] Creating Layer Threshold147
I1109 23:04:56.539685  7692 net.cpp:406] Threshold147 <- BatchNorm143
I1109 23:04:56.539685  7692 net.cpp:380] Threshold147 -> BatchNorm143_
I1109 23:04:56.539685  7692 net.cpp:122] Setting up Threshold147
I1109 23:04:56.539685  7692 net.cpp:129] Top shape: 1 144 32 20 (92160)
I1109 23:04:56.539685  7692 net.cpp:137] Memory required for data: 192184320
I1109 23:04:56.539685  7692 layer_factory.cpp:80] Creating layer BatchNorm143__Threshold147_0_split
I1109 23:04:56.539685  7692 net.cpp:84] Creating Layer BatchNorm143__Threshold147_0_split
I1109 23:04:56.539685  7692 net.cpp:406] BatchNorm143__Threshold147_0_split <- BatchNorm143_
I1109 23:04:56.539685  7692 net.cpp:380] BatchNorm143__Threshold147_0_split -> BatchNorm143__Threshold147_0_split_0
I1109 23:04:56.539685  7692 net.cpp:380] BatchNorm143__Threshold147_0_split -> BatchNorm143__Threshold147_0_split_1
I1109 23:04:56.539685  7692 net.cpp:122] Setting up BatchNorm143__Threshold147_0_split
I1109 23:04:56.539685  7692 net.cpp:129] Top shape: 1 144 32 20 (92160)
I1109 23:04:56.539685  7692 net.cpp:129] Top shape: 1 144 32 20 (92160)
I1109 23:04:56.539685  7692 net.cpp:137] Memory required for data: 192921600
I1109 23:04:56.539685  7692 layer_factory.cpp:80] Creating layer ConvNd148
I1109 23:04:56.539685  7692 net.cpp:84] Creating Layer ConvNd148
I1109 23:04:56.539685  7692 net.cpp:406] ConvNd148 <- BatchNorm143__Threshold147_0_split_0
I1109 23:04:56.539685  7692 net.cpp:380] ConvNd148 -> BatchNorm149
I1109 23:04:56.539685  7692 net.cpp:122] Setting up ConvNd148
I1109 23:04:56.539685  7692 net.cpp:129] Top shape: 1 288 32 20 (184320)
I1109 23:04:56.539685  7692 net.cpp:137] Memory required for data: 193658880
I1109 23:04:56.539685  7692 layer_factory.cpp:80] Creating layer Threshold150
I1109 23:04:56.539685  7692 net.cpp:84] Creating Layer Threshold150
I1109 23:04:56.539685  7692 net.cpp:406] Threshold150 <- BatchNorm149
I1109 23:04:56.539685  7692 net.cpp:367] Threshold150 -> BatchNorm149 (in-place)
I1109 23:04:56.539685  7692 net.cpp:122] Setting up Threshold150
I1109 23:04:56.539685  7692 net.cpp:129] Top shape: 1 288 32 20 (184320)
I1109 23:04:56.539685  7692 net.cpp:137] Memory required for data: 194396160
I1109 23:04:56.539685  7692 layer_factory.cpp:80] Creating layer ConvNd151
I1109 23:04:56.539685  7692 net.cpp:84] Creating Layer ConvNd151
I1109 23:04:56.539685  7692 net.cpp:406] ConvNd151 <- BatchNorm149
I1109 23:04:56.539685  7692 net.cpp:380] ConvNd151 -> BatchNorm152
I1109 23:04:56.540683  7692 net.cpp:122] Setting up ConvNd151
I1109 23:04:56.540683  7692 net.cpp:129] Top shape: 1 144 32 20 (92160)
I1109 23:04:56.540683  7692 net.cpp:137] Memory required for data: 194764800
I1109 23:04:56.540683  7692 layer_factory.cpp:80] Creating layer Threshold156
I1109 23:04:56.540683  7692 net.cpp:84] Creating Layer Threshold156
I1109 23:04:56.540683  7692 net.cpp:406] Threshold156 <- BatchNorm152
I1109 23:04:56.540683  7692 net.cpp:380] Threshold156 -> BatchNorm155_
I1109 23:04:56.540683  7692 net.cpp:122] Setting up Threshold156
I1109 23:04:56.540683  7692 net.cpp:129] Top shape: 1 144 32 20 (92160)
I1109 23:04:56.540683  7692 net.cpp:137] Memory required for data: 195133440
I1109 23:04:56.540683  7692 layer_factory.cpp:80] Creating layer Concat154
I1109 23:04:56.540683  7692 net.cpp:84] Creating Layer Concat154
I1109 23:04:56.540683  7692 net.cpp:406] Concat154 <- BatchNorm135__Threshold138_0_split_1
I1109 23:04:56.540683  7692 net.cpp:406] Concat154 <- BatchNorm143__Threshold147_0_split_1
I1109 23:04:56.540683  7692 net.cpp:406] Concat154 <- BatchNorm155_
I1109 23:04:56.540683  7692 net.cpp:406] Concat154 <- BatchNorm132_Threshold132_0_split_1
I1109 23:04:56.540683  7692 net.cpp:380] Concat154 -> Concat154
I1109 23:04:56.541679  7692 net.cpp:122] Setting up Concat154
I1109 23:04:56.541679  7692 net.cpp:129] Top shape: 1 864 32 20 (552960)
I1109 23:04:56.541679  7692 net.cpp:137] Memory required for data: 197345280
I1109 23:04:56.541679  7692 layer_factory.cpp:80] Creating layer ConvNd157
I1109 23:04:56.541679  7692 net.cpp:84] Creating Layer ConvNd157
I1109 23:04:56.541679  7692 net.cpp:406] ConvNd157 <- Concat154
I1109 23:04:56.541679  7692 net.cpp:380] ConvNd157 -> BatchNorm158
I1109 23:04:56.542676  7692 net.cpp:122] Setting up ConvNd157
I1109 23:04:56.543673  7692 net.cpp:129] Top shape: 1 288 32 20 (184320)
I1109 23:04:56.543673  7692 net.cpp:137] Memory required for data: 198082560
I1109 23:04:56.543673  7692 layer_factory.cpp:80] Creating layer Threshold158
I1109 23:04:56.543673  7692 net.cpp:84] Creating Layer Threshold158
I1109 23:04:56.543673  7692 net.cpp:406] Threshold158 <- BatchNorm158
I1109 23:04:56.543673  7692 net.cpp:367] Threshold158 -> BatchNorm158 (in-place)
I1109 23:04:56.543673  7692 net.cpp:122] Setting up Threshold158
I1109 23:04:56.543673  7692 net.cpp:129] Top shape: 1 288 32 20 (184320)
I1109 23:04:56.543673  7692 net.cpp:137] Memory required for data: 198819840
I1109 23:04:56.543673  7692 layer_factory.cpp:80] Creating layer ConvNd161
I1109 23:04:56.543673  7692 net.cpp:84] Creating Layer ConvNd161
I1109 23:04:56.543673  7692 net.cpp:406] ConvNd161 <- BatchNorm158
I1109 23:04:56.543673  7692 net.cpp:380] ConvNd161 -> BatchNorm162
I1109 23:04:56.544672  7692 net.cpp:122] Setting up ConvNd161
I1109 23:04:56.544672  7692 net.cpp:129] Top shape: 1 288 32 20 (184320)
I1109 23:04:56.544672  7692 net.cpp:137] Memory required for data: 199557120
I1109 23:04:56.544672  7692 layer_factory.cpp:80] Creating layer Threshold165
I1109 23:04:56.544672  7692 net.cpp:84] Creating Layer Threshold165
I1109 23:04:56.544672  7692 net.cpp:406] Threshold165 <- BatchNorm162
I1109 23:04:56.544672  7692 net.cpp:380] Threshold165 -> BatchNorm162_
I1109 23:04:56.544672  7692 net.cpp:122] Setting up Threshold165
I1109 23:04:56.544672  7692 net.cpp:129] Top shape: 1 288 32 20 (184320)
I1109 23:04:56.544672  7692 net.cpp:137] Memory required for data: 200294400
I1109 23:04:56.544672  7692 layer_factory.cpp:80] Creating layer BatchNorm162__Threshold165_0_split
I1109 23:04:56.544672  7692 net.cpp:84] Creating Layer BatchNorm162__Threshold165_0_split
I1109 23:04:56.544672  7692 net.cpp:406] BatchNorm162__Threshold165_0_split <- BatchNorm162_
I1109 23:04:56.544672  7692 net.cpp:380] BatchNorm162__Threshold165_0_split -> BatchNorm162__Threshold165_0_split_0
I1109 23:04:56.544672  7692 net.cpp:380] BatchNorm162__Threshold165_0_split -> BatchNorm162__Threshold165_0_split_1
I1109 23:04:56.544672  7692 net.cpp:122] Setting up BatchNorm162__Threshold165_0_split
I1109 23:04:56.544672  7692 net.cpp:129] Top shape: 1 288 32 20 (184320)
I1109 23:04:56.544672  7692 net.cpp:129] Top shape: 1 288 32 20 (184320)
I1109 23:04:56.544672  7692 net.cpp:137] Memory required for data: 201768960
I1109 23:04:56.544672  7692 layer_factory.cpp:80] Creating layer ConvNd166
I1109 23:04:56.544672  7692 net.cpp:84] Creating Layer ConvNd166
I1109 23:04:56.544672  7692 net.cpp:406] ConvNd166 <- BatchNorm162__Threshold165_0_split_0
I1109 23:04:56.544672  7692 net.cpp:380] ConvNd166 -> BatchNorm167
I1109 23:04:56.544672  7692 net.cpp:122] Setting up ConvNd166
I1109 23:04:56.544672  7692 net.cpp:129] Top shape: 1 288 32 20 (184320)
I1109 23:04:56.544672  7692 net.cpp:137] Memory required for data: 202506240
I1109 23:04:56.544672  7692 layer_factory.cpp:80] Creating layer Threshold168
I1109 23:04:56.544672  7692 net.cpp:84] Creating Layer Threshold168
I1109 23:04:56.544672  7692 net.cpp:406] Threshold168 <- BatchNorm167
I1109 23:04:56.544672  7692 net.cpp:367] Threshold168 -> BatchNorm167 (in-place)
I1109 23:04:56.544672  7692 net.cpp:122] Setting up Threshold168
I1109 23:04:56.544672  7692 net.cpp:129] Top shape: 1 288 32 20 (184320)
I1109 23:04:56.544672  7692 net.cpp:137] Memory required for data: 203243520
I1109 23:04:56.544672  7692 layer_factory.cpp:80] Creating layer ConvNd169
I1109 23:04:56.544672  7692 net.cpp:84] Creating Layer ConvNd169
I1109 23:04:56.544672  7692 net.cpp:406] ConvNd169 <- BatchNorm167
I1109 23:04:56.544672  7692 net.cpp:380] ConvNd169 -> BatchNorm170
I1109 23:04:56.546665  7692 net.cpp:122] Setting up ConvNd169
I1109 23:04:56.546665  7692 net.cpp:129] Top shape: 1 144 32 20 (92160)
I1109 23:04:56.546665  7692 net.cpp:137] Memory required for data: 203612160
I1109 23:04:56.546665  7692 layer_factory.cpp:80] Creating layer Threshold174
I1109 23:04:56.546665  7692 net.cpp:84] Creating Layer Threshold174
I1109 23:04:56.546665  7692 net.cpp:406] Threshold174 <- BatchNorm170
I1109 23:04:56.546665  7692 net.cpp:380] Threshold174 -> BatchNorm170_
I1109 23:04:56.546665  7692 net.cpp:122] Setting up Threshold174
I1109 23:04:56.546665  7692 net.cpp:129] Top shape: 1 144 32 20 (92160)
I1109 23:04:56.546665  7692 net.cpp:137] Memory required for data: 203980800
I1109 23:04:56.546665  7692 layer_factory.cpp:80] Creating layer BatchNorm170__Threshold174_0_split
I1109 23:04:56.546665  7692 net.cpp:84] Creating Layer BatchNorm170__Threshold174_0_split
I1109 23:04:56.546665  7692 net.cpp:406] BatchNorm170__Threshold174_0_split <- BatchNorm170_
I1109 23:04:56.546665  7692 net.cpp:380] BatchNorm170__Threshold174_0_split -> BatchNorm170__Threshold174_0_split_0
I1109 23:04:56.546665  7692 net.cpp:380] BatchNorm170__Threshold174_0_split -> BatchNorm170__Threshold174_0_split_1
I1109 23:04:56.546665  7692 net.cpp:122] Setting up BatchNorm170__Threshold174_0_split
I1109 23:04:56.546665  7692 net.cpp:129] Top shape: 1 144 32 20 (92160)
I1109 23:04:56.546665  7692 net.cpp:129] Top shape: 1 144 32 20 (92160)
I1109 23:04:56.546665  7692 net.cpp:137] Memory required for data: 204718080
I1109 23:04:56.546665  7692 layer_factory.cpp:80] Creating layer ConvNd175
I1109 23:04:56.546665  7692 net.cpp:84] Creating Layer ConvNd175
I1109 23:04:56.546665  7692 net.cpp:406] ConvNd175 <- BatchNorm170__Threshold174_0_split_0
I1109 23:04:56.546665  7692 net.cpp:380] ConvNd175 -> BatchNorm176
I1109 23:04:56.547663  7692 net.cpp:122] Setting up ConvNd175
I1109 23:04:56.547663  7692 net.cpp:129] Top shape: 1 288 32 20 (184320)
I1109 23:04:56.547663  7692 net.cpp:137] Memory required for data: 205455360
I1109 23:04:56.547663  7692 layer_factory.cpp:80] Creating layer Threshold177
I1109 23:04:56.547663  7692 net.cpp:84] Creating Layer Threshold177
I1109 23:04:56.547663  7692 net.cpp:406] Threshold177 <- BatchNorm176
I1109 23:04:56.547663  7692 net.cpp:367] Threshold177 -> BatchNorm176 (in-place)
I1109 23:04:56.547663  7692 net.cpp:122] Setting up Threshold177
I1109 23:04:56.547663  7692 net.cpp:129] Top shape: 1 288 32 20 (184320)
I1109 23:04:56.547663  7692 net.cpp:137] Memory required for data: 206192640
I1109 23:04:56.547663  7692 layer_factory.cpp:80] Creating layer ConvNd178
I1109 23:04:56.547663  7692 net.cpp:84] Creating Layer ConvNd178
I1109 23:04:56.547663  7692 net.cpp:406] ConvNd178 <- BatchNorm176
I1109 23:04:56.547663  7692 net.cpp:380] ConvNd178 -> BatchNorm179
I1109 23:04:56.548660  7692 net.cpp:122] Setting up ConvNd178
I1109 23:04:56.548660  7692 net.cpp:129] Top shape: 1 144 32 20 (92160)
I1109 23:04:56.548660  7692 net.cpp:137] Memory required for data: 206561280
I1109 23:04:56.548660  7692 layer_factory.cpp:80] Creating layer Threshold183
I1109 23:04:56.548660  7692 net.cpp:84] Creating Layer Threshold183
I1109 23:04:56.548660  7692 net.cpp:406] Threshold183 <- BatchNorm179
I1109 23:04:56.548660  7692 net.cpp:380] Threshold183 -> BatchNorm182_
I1109 23:04:56.548660  7692 net.cpp:122] Setting up Threshold183
I1109 23:04:56.548660  7692 net.cpp:129] Top shape: 1 144 32 20 (92160)
I1109 23:04:56.548660  7692 net.cpp:137] Memory required for data: 206929920
I1109 23:04:56.548660  7692 layer_factory.cpp:80] Creating layer Concat181
I1109 23:04:56.548660  7692 net.cpp:84] Creating Layer Concat181
I1109 23:04:56.548660  7692 net.cpp:406] Concat181 <- BatchNorm162__Threshold165_0_split_1
I1109 23:04:56.548660  7692 net.cpp:406] Concat181 <- BatchNorm170__Threshold174_0_split_1
I1109 23:04:56.548660  7692 net.cpp:406] Concat181 <- BatchNorm182_
I1109 23:04:56.548660  7692 net.cpp:406] Concat181 <- BatchNorm132_Threshold132_0_split_2
I1109 23:04:56.548660  7692 net.cpp:380] Concat181 -> Concat181
I1109 23:04:56.548660  7692 net.cpp:122] Setting up Concat181
I1109 23:04:56.548660  7692 net.cpp:129] Top shape: 1 864 32 20 (552960)
I1109 23:04:56.548660  7692 net.cpp:137] Memory required for data: 209141760
I1109 23:04:56.548660  7692 layer_factory.cpp:80] Creating layer ConvNd184
I1109 23:04:56.548660  7692 net.cpp:84] Creating Layer ConvNd184
I1109 23:04:56.548660  7692 net.cpp:406] ConvNd184 <- Concat181
I1109 23:04:56.548660  7692 net.cpp:380] ConvNd184 -> BatchNorm185
I1109 23:04:56.550655  7692 net.cpp:122] Setting up ConvNd184
I1109 23:04:56.550655  7692 net.cpp:129] Top shape: 1 288 32 20 (184320)
I1109 23:04:56.550655  7692 net.cpp:137] Memory required for data: 209879040
I1109 23:04:56.550655  7692 layer_factory.cpp:80] Creating layer Threshold185
I1109 23:04:56.550655  7692 net.cpp:84] Creating Layer Threshold185
I1109 23:04:56.550655  7692 net.cpp:406] Threshold185 <- BatchNorm185
I1109 23:04:56.550655  7692 net.cpp:367] Threshold185 -> BatchNorm185 (in-place)
I1109 23:04:56.550655  7692 net.cpp:122] Setting up Threshold185
I1109 23:04:56.550655  7692 net.cpp:129] Top shape: 1 288 32 20 (184320)
I1109 23:04:56.550655  7692 net.cpp:137] Memory required for data: 210616320
I1109 23:04:56.550655  7692 layer_factory.cpp:80] Creating layer ConvNd187
I1109 23:04:56.550655  7692 net.cpp:84] Creating Layer ConvNd187
I1109 23:04:56.550655  7692 net.cpp:406] ConvNd187 <- BatchNorm185
I1109 23:04:56.550655  7692 net.cpp:380] ConvNd187 -> BatchNorm188
I1109 23:04:56.551652  7692 net.cpp:122] Setting up ConvNd187
I1109 23:04:56.551652  7692 net.cpp:129] Top shape: 1 288 32 20 (184320)
I1109 23:04:56.551652  7692 net.cpp:137] Memory required for data: 211353600
I1109 23:04:56.551652  7692 layer_factory.cpp:80] Creating layer Threshold191
I1109 23:04:56.551652  7692 net.cpp:84] Creating Layer Threshold191
I1109 23:04:56.551652  7692 net.cpp:406] Threshold191 <- BatchNorm188
I1109 23:04:56.551652  7692 net.cpp:380] Threshold191 -> BatchNorm188_
I1109 23:04:56.551652  7692 net.cpp:122] Setting up Threshold191
I1109 23:04:56.551652  7692 net.cpp:129] Top shape: 1 288 32 20 (184320)
I1109 23:04:56.551652  7692 net.cpp:137] Memory required for data: 212090880
I1109 23:04:56.551652  7692 layer_factory.cpp:80] Creating layer BatchNorm188__Threshold191_0_split
I1109 23:04:56.551652  7692 net.cpp:84] Creating Layer BatchNorm188__Threshold191_0_split
I1109 23:04:56.551652  7692 net.cpp:406] BatchNorm188__Threshold191_0_split <- BatchNorm188_
I1109 23:04:56.551652  7692 net.cpp:380] BatchNorm188__Threshold191_0_split -> BatchNorm188__Threshold191_0_split_0
I1109 23:04:56.551652  7692 net.cpp:380] BatchNorm188__Threshold191_0_split -> BatchNorm188__Threshold191_0_split_1
I1109 23:04:56.551652  7692 net.cpp:122] Setting up BatchNorm188__Threshold191_0_split
I1109 23:04:56.551652  7692 net.cpp:129] Top shape: 1 288 32 20 (184320)
I1109 23:04:56.551652  7692 net.cpp:129] Top shape: 1 288 32 20 (184320)
I1109 23:04:56.551652  7692 net.cpp:137] Memory required for data: 213565440
I1109 23:04:56.551652  7692 layer_factory.cpp:80] Creating layer ConvNd192
I1109 23:04:56.551652  7692 net.cpp:84] Creating Layer ConvNd192
I1109 23:04:56.551652  7692 net.cpp:406] ConvNd192 <- BatchNorm188__Threshold191_0_split_0
I1109 23:04:56.551652  7692 net.cpp:380] ConvNd192 -> BatchNorm193
I1109 23:04:56.552649  7692 net.cpp:122] Setting up ConvNd192
I1109 23:04:56.552649  7692 net.cpp:129] Top shape: 1 288 32 20 (184320)
I1109 23:04:56.552649  7692 net.cpp:137] Memory required for data: 214302720
I1109 23:04:56.552649  7692 layer_factory.cpp:80] Creating layer Threshold194
I1109 23:04:56.552649  7692 net.cpp:84] Creating Layer Threshold194
I1109 23:04:56.552649  7692 net.cpp:406] Threshold194 <- BatchNorm193
I1109 23:04:56.552649  7692 net.cpp:367] Threshold194 -> BatchNorm193 (in-place)
I1109 23:04:56.552649  7692 net.cpp:122] Setting up Threshold194
I1109 23:04:56.552649  7692 net.cpp:129] Top shape: 1 288 32 20 (184320)
I1109 23:04:56.552649  7692 net.cpp:137] Memory required for data: 215040000
I1109 23:04:56.552649  7692 layer_factory.cpp:80] Creating layer ConvNd195
I1109 23:04:56.552649  7692 net.cpp:84] Creating Layer ConvNd195
I1109 23:04:56.552649  7692 net.cpp:406] ConvNd195 <- BatchNorm193
I1109 23:04:56.552649  7692 net.cpp:380] ConvNd195 -> BatchNorm196
I1109 23:04:56.554644  7692 net.cpp:122] Setting up ConvNd195
I1109 23:04:56.554644  7692 net.cpp:129] Top shape: 1 144 32 20 (92160)
I1109 23:04:56.554644  7692 net.cpp:137] Memory required for data: 215408640
I1109 23:04:56.554644  7692 layer_factory.cpp:80] Creating layer Threshold200
I1109 23:04:56.554644  7692 net.cpp:84] Creating Layer Threshold200
I1109 23:04:56.554644  7692 net.cpp:406] Threshold200 <- BatchNorm196
I1109 23:04:56.554644  7692 net.cpp:380] Threshold200 -> BatchNorm196_
I1109 23:04:56.554644  7692 net.cpp:122] Setting up Threshold200
I1109 23:04:56.554644  7692 net.cpp:129] Top shape: 1 144 32 20 (92160)
I1109 23:04:56.554644  7692 net.cpp:137] Memory required for data: 215777280
I1109 23:04:56.554644  7692 layer_factory.cpp:80] Creating layer BatchNorm196__Threshold200_0_split
I1109 23:04:56.554644  7692 net.cpp:84] Creating Layer BatchNorm196__Threshold200_0_split
I1109 23:04:56.554644  7692 net.cpp:406] BatchNorm196__Threshold200_0_split <- BatchNorm196_
I1109 23:04:56.554644  7692 net.cpp:380] BatchNorm196__Threshold200_0_split -> BatchNorm196__Threshold200_0_split_0
I1109 23:04:56.554644  7692 net.cpp:380] BatchNorm196__Threshold200_0_split -> BatchNorm196__Threshold200_0_split_1
I1109 23:04:56.554644  7692 net.cpp:122] Setting up BatchNorm196__Threshold200_0_split
I1109 23:04:56.554644  7692 net.cpp:129] Top shape: 1 144 32 20 (92160)
I1109 23:04:56.554644  7692 net.cpp:129] Top shape: 1 144 32 20 (92160)
I1109 23:04:56.554644  7692 net.cpp:137] Memory required for data: 216514560
I1109 23:04:56.554644  7692 layer_factory.cpp:80] Creating layer ConvNd201
I1109 23:04:56.554644  7692 net.cpp:84] Creating Layer ConvNd201
I1109 23:04:56.554644  7692 net.cpp:406] ConvNd201 <- BatchNorm196__Threshold200_0_split_0
I1109 23:04:56.554644  7692 net.cpp:380] ConvNd201 -> BatchNorm202
I1109 23:04:56.554644  7692 net.cpp:122] Setting up ConvNd201
I1109 23:04:56.554644  7692 net.cpp:129] Top shape: 1 288 32 20 (184320)
I1109 23:04:56.554644  7692 net.cpp:137] Memory required for data: 217251840
I1109 23:04:56.554644  7692 layer_factory.cpp:80] Creating layer Threshold203
I1109 23:04:56.554644  7692 net.cpp:84] Creating Layer Threshold203
I1109 23:04:56.554644  7692 net.cpp:406] Threshold203 <- BatchNorm202
I1109 23:04:56.554644  7692 net.cpp:367] Threshold203 -> BatchNorm202 (in-place)
I1109 23:04:56.554644  7692 net.cpp:122] Setting up Threshold203
I1109 23:04:56.554644  7692 net.cpp:129] Top shape: 1 288 32 20 (184320)
I1109 23:04:56.554644  7692 net.cpp:137] Memory required for data: 217989120
I1109 23:04:56.554644  7692 layer_factory.cpp:80] Creating layer ConvNd204
I1109 23:04:56.554644  7692 net.cpp:84] Creating Layer ConvNd204
I1109 23:04:56.554644  7692 net.cpp:406] ConvNd204 <- BatchNorm202
I1109 23:04:56.554644  7692 net.cpp:380] ConvNd204 -> BatchNorm205
I1109 23:04:56.555642  7692 net.cpp:122] Setting up ConvNd204
I1109 23:04:56.555642  7692 net.cpp:129] Top shape: 1 144 32 20 (92160)
I1109 23:04:56.555642  7692 net.cpp:137] Memory required for data: 218357760
I1109 23:04:56.555642  7692 layer_factory.cpp:80] Creating layer Threshold209
I1109 23:04:56.555642  7692 net.cpp:84] Creating Layer Threshold209
I1109 23:04:56.555642  7692 net.cpp:406] Threshold209 <- BatchNorm205
I1109 23:04:56.555642  7692 net.cpp:380] Threshold209 -> BatchNorm208_
I1109 23:04:56.555642  7692 net.cpp:122] Setting up Threshold209
I1109 23:04:56.555642  7692 net.cpp:129] Top shape: 1 144 32 20 (92160)
I1109 23:04:56.555642  7692 net.cpp:137] Memory required for data: 218726400
I1109 23:04:56.555642  7692 layer_factory.cpp:80] Creating layer Concat207
I1109 23:04:56.555642  7692 net.cpp:84] Creating Layer Concat207
I1109 23:04:56.555642  7692 net.cpp:406] Concat207 <- BatchNorm188__Threshold191_0_split_1
I1109 23:04:56.555642  7692 net.cpp:406] Concat207 <- BatchNorm196__Threshold200_0_split_1
I1109 23:04:56.555642  7692 net.cpp:406] Concat207 <- BatchNorm208_
I1109 23:04:56.555642  7692 net.cpp:406] Concat207 <- BatchNorm132_Threshold132_0_split_3
I1109 23:04:56.555642  7692 net.cpp:380] Concat207 -> Concat207
I1109 23:04:56.555642  7692 net.cpp:122] Setting up Concat207
I1109 23:04:56.555642  7692 net.cpp:129] Top shape: 1 864 32 20 (552960)
I1109 23:04:56.555642  7692 net.cpp:137] Memory required for data: 220938240
I1109 23:04:56.555642  7692 layer_factory.cpp:80] Creating layer ConvNd210
I1109 23:04:56.555642  7692 net.cpp:84] Creating Layer ConvNd210
I1109 23:04:56.555642  7692 net.cpp:406] ConvNd210 <- Concat207
I1109 23:04:56.555642  7692 net.cpp:380] ConvNd210 -> BatchNorm270
I1109 23:04:56.558634  7692 net.cpp:122] Setting up ConvNd210
I1109 23:04:56.558634  7692 net.cpp:129] Top shape: 1 416 32 20 (266240)
I1109 23:04:56.558634  7692 net.cpp:137] Memory required for data: 222003200
I1109 23:04:56.558634  7692 layer_factory.cpp:80] Creating layer Threshold270
I1109 23:04:56.558634  7692 net.cpp:84] Creating Layer Threshold270
I1109 23:04:56.558634  7692 net.cpp:406] Threshold270 <- BatchNorm270
I1109 23:04:56.558634  7692 net.cpp:367] Threshold270 -> BatchNorm270 (in-place)
I1109 23:04:56.558634  7692 net.cpp:122] Setting up Threshold270
I1109 23:04:56.558634  7692 net.cpp:129] Top shape: 1 416 32 20 (266240)
I1109 23:04:56.558634  7692 net.cpp:137] Memory required for data: 223068160
I1109 23:04:56.558634  7692 layer_factory.cpp:80] Creating layer BatchNorm270_Threshold270_0_split
I1109 23:04:56.558634  7692 net.cpp:84] Creating Layer BatchNorm270_Threshold270_0_split
I1109 23:04:56.558634  7692 net.cpp:406] BatchNorm270_Threshold270_0_split <- BatchNorm270
I1109 23:04:56.558634  7692 net.cpp:380] BatchNorm270_Threshold270_0_split -> BatchNorm270_Threshold270_0_split_0
I1109 23:04:56.558634  7692 net.cpp:380] BatchNorm270_Threshold270_0_split -> BatchNorm270_Threshold270_0_split_1
I1109 23:04:56.558634  7692 net.cpp:122] Setting up BatchNorm270_Threshold270_0_split
I1109 23:04:56.558634  7692 net.cpp:129] Top shape: 1 416 32 20 (266240)
I1109 23:04:56.558634  7692 net.cpp:129] Top shape: 1 416 32 20 (266240)
I1109 23:04:56.558634  7692 net.cpp:137] Memory required for data: 225198080
I1109 23:04:56.558634  7692 layer_factory.cpp:80] Creating layer res5b_branch2b_new
I1109 23:04:56.558634  7692 net.cpp:84] Creating Layer res5b_branch2b_new
I1109 23:04:56.558634  7692 net.cpp:406] res5b_branch2b_new <- BatchNorm270_Threshold270_0_split_0
I1109 23:04:56.558634  7692 net.cpp:380] res5b_branch2b_new -> res5b_branch2b
I1109 23:04:56.559630  7692 net.cpp:122] Setting up res5b_branch2b_new
I1109 23:04:56.559630  7692 net.cpp:129] Top shape: 1 256 32 20 (163840)
I1109 23:04:56.559630  7692 net.cpp:137] Memory required for data: 225853440
I1109 23:04:56.559630  7692 layer_factory.cpp:80] Creating layer res5b_branch2b_relu
I1109 23:04:56.559630  7692 net.cpp:84] Creating Layer res5b_branch2b_relu
I1109 23:04:56.559630  7692 net.cpp:406] res5b_branch2b_relu <- res5b_branch2b
I1109 23:04:56.559630  7692 net.cpp:367] res5b_branch2b_relu -> res5b_branch2b (in-place)
I1109 23:04:56.559630  7692 net.cpp:122] Setting up res5b_branch2b_relu
I1109 23:04:56.559630  7692 net.cpp:129] Top shape: 1 256 32 20 (163840)
I1109 23:04:56.559630  7692 net.cpp:137] Memory required for data: 226508800
I1109 23:04:56.559630  7692 layer_factory.cpp:80] Creating layer res5b_branch2c_new
I1109 23:04:56.559630  7692 net.cpp:84] Creating Layer res5b_branch2c_new
I1109 23:04:56.559630  7692 net.cpp:406] res5b_branch2c_new <- res5b_branch2b
I1109 23:04:56.559630  7692 net.cpp:380] res5b_branch2c_new -> res5b_branch2c
I1109 23:04:56.561625  7692 net.cpp:122] Setting up res5b_branch2c_new
I1109 23:04:56.561625  7692 net.cpp:129] Top shape: 1 192 64 40 (491520)
I1109 23:04:56.561625  7692 net.cpp:137] Memory required for data: 228474880
I1109 23:04:56.561625  7692 layer_factory.cpp:80] Creating layer res5b_relu
I1109 23:04:56.561625  7692 net.cpp:84] Creating Layer res5b_relu
I1109 23:04:56.561625  7692 net.cpp:406] res5b_relu <- res5b_branch2c
I1109 23:04:56.561625  7692 net.cpp:367] res5b_relu -> res5b_branch2c (in-place)
I1109 23:04:56.561625  7692 net.cpp:122] Setting up res5b_relu
I1109 23:04:56.561625  7692 net.cpp:129] Top shape: 1 192 64 40 (491520)
I1109 23:04:56.561625  7692 net.cpp:137] Memory required for data: 230440960
I1109 23:04:56.561625  7692 layer_factory.cpp:80] Creating layer res5c_branch2a_new
I1109 23:04:56.561625  7692 net.cpp:84] Creating Layer res5c_branch2a_new
I1109 23:04:56.561625  7692 net.cpp:406] res5c_branch2a_new <- res5b_branch2c
I1109 23:04:56.561625  7692 net.cpp:380] res5c_branch2a_new -> res5c_branch2a
I1109 23:04:56.562623  7692 net.cpp:122] Setting up res5c_branch2a_new
I1109 23:04:56.562623  7692 net.cpp:129] Top shape: 1 128 64 40 (327680)
I1109 23:04:56.562623  7692 net.cpp:137] Memory required for data: 231751680
I1109 23:04:56.562623  7692 layer_factory.cpp:80] Creating layer res5c_branch2a_relu
I1109 23:04:56.562623  7692 net.cpp:84] Creating Layer res5c_branch2a_relu
I1109 23:04:56.562623  7692 net.cpp:406] res5c_branch2a_relu <- res5c_branch2a
I1109 23:04:56.562623  7692 net.cpp:367] res5c_branch2a_relu -> res5c_branch2a (in-place)
I1109 23:04:56.562623  7692 net.cpp:122] Setting up res5c_branch2a_relu
I1109 23:04:56.562623  7692 net.cpp:129] Top shape: 1 128 64 40 (327680)
I1109 23:04:56.562623  7692 net.cpp:137] Memory required for data: 233062400
I1109 23:04:56.562623  7692 layer_factory.cpp:80] Creating layer res5c_branch2a_res5c_branch2a_relu_0_split
I1109 23:04:56.562623  7692 net.cpp:84] Creating Layer res5c_branch2a_res5c_branch2a_relu_0_split
I1109 23:04:56.562623  7692 net.cpp:406] res5c_branch2a_res5c_branch2a_relu_0_split <- res5c_branch2a
I1109 23:04:56.562623  7692 net.cpp:380] res5c_branch2a_res5c_branch2a_relu_0_split -> res5c_branch2a_res5c_branch2a_relu_0_split_0
I1109 23:04:56.562623  7692 net.cpp:380] res5c_branch2a_res5c_branch2a_relu_0_split -> res5c_branch2a_res5c_branch2a_relu_0_split_1
I1109 23:04:56.562623  7692 net.cpp:122] Setting up res5c_branch2a_res5c_branch2a_relu_0_split
I1109 23:04:56.562623  7692 net.cpp:129] Top shape: 1 128 64 40 (327680)
I1109 23:04:56.562623  7692 net.cpp:129] Top shape: 1 128 64 40 (327680)
I1109 23:04:56.562623  7692 net.cpp:137] Memory required for data: 235683840
I1109 23:04:56.562623  7692 layer_factory.cpp:80] Creating layer res5c_branch2b_new
I1109 23:04:56.562623  7692 net.cpp:84] Creating Layer res5c_branch2b_new
I1109 23:04:56.562623  7692 net.cpp:406] res5c_branch2b_new <- res5c_branch2a_res5c_branch2a_relu_0_split_0
I1109 23:04:56.562623  7692 net.cpp:380] res5c_branch2b_new -> res5c_branch2b
I1109 23:04:56.562623  7692 net.cpp:122] Setting up res5c_branch2b_new
I1109 23:04:56.562623  7692 net.cpp:129] Top shape: 1 96 64 40 (245760)
I1109 23:04:56.562623  7692 net.cpp:137] Memory required for data: 236666880
I1109 23:04:56.562623  7692 layer_factory.cpp:80] Creating layer res5c_branch2b_relu
I1109 23:04:56.562623  7692 net.cpp:84] Creating Layer res5c_branch2b_relu
I1109 23:04:56.562623  7692 net.cpp:406] res5c_branch2b_relu <- res5c_branch2b
I1109 23:04:56.562623  7692 net.cpp:367] res5c_branch2b_relu -> res5c_branch2b (in-place)
I1109 23:04:56.562623  7692 net.cpp:122] Setting up res5c_branch2b_relu
I1109 23:04:56.562623  7692 net.cpp:129] Top shape: 1 96 64 40 (245760)
I1109 23:04:56.562623  7692 net.cpp:137] Memory required for data: 237649920
I1109 23:04:56.562623  7692 layer_factory.cpp:80] Creating layer res5c_branch2c_new
I1109 23:04:56.562623  7692 net.cpp:84] Creating Layer res5c_branch2c_new
I1109 23:04:56.562623  7692 net.cpp:406] res5c_branch2c_new <- res5c_branch2b
I1109 23:04:56.562623  7692 net.cpp:380] res5c_branch2c_new -> res5c_branch2c
I1109 23:04:56.563621  7692 net.cpp:122] Setting up res5c_branch2c_new
I1109 23:04:56.563621  7692 net.cpp:129] Top shape: 1 57 64 40 (145920)
I1109 23:04:56.563621  7692 net.cpp:137] Memory required for data: 238233600
I1109 23:04:56.563621  7692 layer_factory.cpp:80] Creating layer res5c_branch2c_res5c_branch2c_new_0_split
I1109 23:04:56.563621  7692 net.cpp:84] Creating Layer res5c_branch2c_res5c_branch2c_new_0_split
I1109 23:04:56.563621  7692 net.cpp:406] res5c_branch2c_res5c_branch2c_new_0_split <- res5c_branch2c
I1109 23:04:56.563621  7692 net.cpp:380] res5c_branch2c_res5c_branch2c_new_0_split -> res5c_branch2c_res5c_branch2c_new_0_split_0
I1109 23:04:56.563621  7692 net.cpp:380] res5c_branch2c_res5c_branch2c_new_0_split -> res5c_branch2c_res5c_branch2c_new_0_split_1
I1109 23:04:56.563621  7692 net.cpp:122] Setting up res5c_branch2c_res5c_branch2c_new_0_split
I1109 23:04:56.563621  7692 net.cpp:129] Top shape: 1 57 64 40 (145920)
I1109 23:04:56.563621  7692 net.cpp:129] Top shape: 1 57 64 40 (145920)
I1109 23:04:56.563621  7692 net.cpp:137] Memory required for data: 239400960
I1109 23:04:56.563621  7692 layer_factory.cpp:80] Creating layer res5b_branch2b_3da
I1109 23:04:56.563621  7692 net.cpp:84] Creating Layer res5b_branch2b_3da
I1109 23:04:56.563621  7692 net.cpp:406] res5b_branch2b_3da <- BatchNorm270_Threshold270_0_split_1
I1109 23:04:56.563621  7692 net.cpp:380] res5b_branch2b_3da -> res5b_branch2b_3da
I1109 23:04:56.563621  7692 net.cpp:122] Setting up res5b_branch2b_3da
I1109 23:04:56.563621  7692 net.cpp:129] Top shape: 1 256 32 20 (163840)
I1109 23:04:56.563621  7692 net.cpp:137] Memory required for data: 240056320
I1109 23:04:56.563621  7692 layer_factory.cpp:80] Creating layer res5b_branch2b_prelu_3da
I1109 23:04:56.563621  7692 net.cpp:84] Creating Layer res5b_branch2b_prelu_3da
I1109 23:04:56.563621  7692 net.cpp:406] res5b_branch2b_prelu_3da <- res5b_branch2b_3da
I1109 23:04:56.563621  7692 net.cpp:367] res5b_branch2b_prelu_3da -> res5b_branch2b_3da (in-place)
I1109 23:04:56.563621  7692 net.cpp:122] Setting up res5b_branch2b_prelu_3da
I1109 23:04:56.563621  7692 net.cpp:129] Top shape: 1 256 32 20 (163840)
I1109 23:04:56.563621  7692 net.cpp:137] Memory required for data: 240711680
I1109 23:04:56.563621  7692 layer_factory.cpp:80] Creating layer ConvNd187_3d
I1109 23:04:56.563621  7692 net.cpp:84] Creating Layer ConvNd187_3d
I1109 23:04:56.563621  7692 net.cpp:406] ConvNd187_3d <- res5b_branch2b_3da
I1109 23:04:56.563621  7692 net.cpp:380] ConvNd187_3d -> BatchNorm188_3d
I1109 23:04:56.565615  7692 net.cpp:122] Setting up ConvNd187_3d
I1109 23:04:56.565615  7692 net.cpp:129] Top shape: 1 192 64 40 (491520)
I1109 23:04:56.565615  7692 net.cpp:137] Memory required for data: 242677760
I1109 23:04:56.565615  7692 layer_factory.cpp:80] Creating layer Threshold189_3d
I1109 23:04:56.565615  7692 net.cpp:84] Creating Layer Threshold189_3d
I1109 23:04:56.565615  7692 net.cpp:406] Threshold189_3d <- BatchNorm188_3d
I1109 23:04:56.565615  7692 net.cpp:367] Threshold189_3d -> BatchNorm188_3d (in-place)
I1109 23:04:56.565615  7692 net.cpp:122] Setting up Threshold189_3d
I1109 23:04:56.565615  7692 net.cpp:129] Top shape: 1 192 64 40 (491520)
I1109 23:04:56.565615  7692 net.cpp:137] Memory required for data: 244643840
I1109 23:04:56.565615  7692 layer_factory.cpp:80] Creating layer ConvNd210_3d
I1109 23:04:56.565615  7692 net.cpp:84] Creating Layer ConvNd210_3d
I1109 23:04:56.565615  7692 net.cpp:406] ConvNd210_3d <- BatchNorm188_3d
I1109 23:04:56.565615  7692 net.cpp:380] ConvNd210_3d -> BatchNorm211_3d
I1109 23:04:56.567610  7692 net.cpp:122] Setting up ConvNd210_3d
I1109 23:04:56.567610  7692 net.cpp:129] Top shape: 1 160 64 40 (409600)
I1109 23:04:56.567610  7692 net.cpp:137] Memory required for data: 246282240
I1109 23:04:56.567610  7692 layer_factory.cpp:80] Creating layer Threshold268_3d
I1109 23:04:56.567610  7692 net.cpp:84] Creating Layer Threshold268_3d
I1109 23:04:56.567610  7692 net.cpp:406] Threshold268_3d <- BatchNorm211_3d
I1109 23:04:56.567610  7692 net.cpp:367] Threshold268_3d -> BatchNorm211_3d (in-place)
I1109 23:04:56.567610  7692 net.cpp:122] Setting up Threshold268_3d
I1109 23:04:56.567610  7692 net.cpp:129] Top shape: 1 160 64 40 (409600)
I1109 23:04:56.567610  7692 net.cpp:137] Memory required for data: 247920640
I1109 23:04:56.567610  7692 layer_factory.cpp:80] Creating layer Concat 2dnet and 3d
I1109 23:04:56.567610  7692 net.cpp:84] Creating Layer Concat 2dnet and 3d
I1109 23:04:56.567610  7692 net.cpp:406] Concat 2dnet and 3d <- BatchNorm211_3d
I1109 23:04:56.567610  7692 net.cpp:406] Concat 2dnet and 3d <- res5c_branch2a_res5c_branch2a_relu_0_split_1
I1109 23:04:56.567610  7692 net.cpp:380] Concat 2dnet and 3d -> res5c_concat
I1109 23:04:56.567610  7692 net.cpp:122] Setting up Concat 2dnet and 3d
I1109 23:04:56.567610  7692 net.cpp:129] Top shape: 1 288 64 40 (737280)
I1109 23:04:56.567610  7692 net.cpp:137] Memory required for data: 250869760
I1109 23:04:56.567610  7692 layer_factory.cpp:80] Creating layer res5b_branch2c_3d
I1109 23:04:56.567610  7692 net.cpp:84] Creating Layer res5b_branch2c_3d
I1109 23:04:56.567610  7692 net.cpp:406] res5b_branch2c_3d <- res5c_concat
I1109 23:04:56.567610  7692 net.cpp:380] res5b_branch2c_3d -> res5b_branch2c_3d
I1109 23:04:56.567610  7692 net.cpp:122] Setting up res5b_branch2c_3d
I1109 23:04:56.567610  7692 net.cpp:129] Top shape: 1 160 64 40 (409600)
I1109 23:04:56.567610  7692 net.cpp:137] Memory required for data: 252508160
I1109 23:04:56.567610  7692 layer_factory.cpp:80] Creating layer res5b_branch2c_relu_3d
I1109 23:04:56.567610  7692 net.cpp:84] Creating Layer res5b_branch2c_relu_3d
I1109 23:04:56.567610  7692 net.cpp:406] res5b_branch2c_relu_3d <- res5b_branch2c_3d
I1109 23:04:56.567610  7692 net.cpp:367] res5b_branch2c_relu_3d -> res5b_branch2c_3d (in-place)
I1109 23:04:56.567610  7692 net.cpp:122] Setting up res5b_branch2c_relu_3d
I1109 23:04:56.567610  7692 net.cpp:129] Top shape: 1 160 64 40 (409600)
I1109 23:04:56.567610  7692 net.cpp:137] Memory required for data: 254146560
I1109 23:04:56.567610  7692 layer_factory.cpp:80] Creating layer res7a_branch1_3d
I1109 23:04:56.567610  7692 net.cpp:84] Creating Layer res7a_branch1_3d
I1109 23:04:56.567610  7692 net.cpp:406] res7a_branch1_3d <- res5b_branch2c_3d
I1109 23:04:56.567610  7692 net.cpp:380] res7a_branch1_3d -> res7a_branch1_3d
I1109 23:04:56.568607  7692 net.cpp:122] Setting up res7a_branch1_3d
I1109 23:04:56.568607  7692 net.cpp:129] Top shape: 1 128 64 40 (327680)
I1109 23:04:56.568607  7692 net.cpp:137] Memory required for data: 255457280
I1109 23:04:56.568607  7692 layer_factory.cpp:80] Creating layer res7a_branch1_relu_3d
I1109 23:04:56.568607  7692 net.cpp:84] Creating Layer res7a_branch1_relu_3d
I1109 23:04:56.568607  7692 net.cpp:406] res7a_branch1_relu_3d <- res7a_branch1_3d
I1109 23:04:56.568607  7692 net.cpp:367] res7a_branch1_relu_3d -> res7a_branch1_3d (in-place)
I1109 23:04:56.568607  7692 net.cpp:122] Setting up res7a_branch1_relu_3d
I1109 23:04:56.568607  7692 net.cpp:129] Top shape: 1 128 64 40 (327680)
I1109 23:04:56.568607  7692 net.cpp:137] Memory required for data: 256768000
I1109 23:04:56.568607  7692 layer_factory.cpp:80] Creating layer res7a_branch2a_3d
I1109 23:04:56.568607  7692 net.cpp:84] Creating Layer res7a_branch2a_3d
I1109 23:04:56.568607  7692 net.cpp:406] res7a_branch2a_3d <- res7a_branch1_3d
I1109 23:04:56.568607  7692 net.cpp:380] res7a_branch2a_3d -> 7b_prediction
I1109 23:04:56.568607  7692 net.cpp:122] Setting up res7a_branch2a_3d
I1109 23:04:56.568607  7692 net.cpp:129] Top shape: 1 63 64 40 (161280)
I1109 23:04:56.568607  7692 net.cpp:137] Memory required for data: 257413120
I1109 23:04:56.568607  7692 layer_factory.cpp:80] Creating layer slice_res5c
I1109 23:04:56.568607  7692 net.cpp:84] Creating Layer slice_res5c
I1109 23:04:56.568607  7692 net.cpp:406] slice_res5c <- res5c_branch2c_res5c_branch2c_new_0_split_0
I1109 23:04:56.568607  7692 net.cpp:380] slice_res5c -> heatmap_2d
I1109 23:04:56.568607  7692 net.cpp:380] slice_res5c -> affinity_2d
I1109 23:04:56.568607  7692 net.cpp:122] Setting up slice_res5c
I1109 23:04:56.568607  7692 net.cpp:129] Top shape: 1 19 64 40 (48640)
I1109 23:04:56.568607  7692 net.cpp:129] Top shape: 1 38 64 40 (97280)
I1109 23:04:56.568607  7692 net.cpp:137] Memory required for data: 257996800
I1109 23:04:56.568607  7692 layer_factory.cpp:80] Creating layer resize
I1109 23:04:56.568607  7692 net.cpp:84] Creating Layer resize
I1109 23:04:56.568607  7692 net.cpp:406] resize <- res5c_branch2c_res5c_branch2c_new_0_split_1
I1109 23:04:56.568607  7692 net.cpp:380] resize -> resized_map
I1109 23:04:56.568607  7692 net.cpp:122] Setting up resize
I1109 23:04:56.568607  7692 net.cpp:129] Top shape: 1 57 256 160 (2334720)
I1109 23:04:56.568607  7692 net.cpp:137] Memory required for data: 267335680
I1109 23:04:56.568607  7692 layer_factory.cpp:80] Creating layer nms
I1109 23:04:56.568607  7692 net.cpp:84] Creating Layer nms
I1109 23:04:56.568607  7692 net.cpp:406] nms <- resized_map
I1109 23:04:56.568607  7692 net.cpp:380] nms -> joints
I1109 23:04:56.568607  7692 net.cpp:122] Setting up nms
I1109 23:04:56.568607  7692 net.cpp:129] Top shape: 1 18 65 3 (3510)
I1109 23:04:56.568607  7692 net.cpp:137] Memory required for data: 267349720
I1109 23:04:56.568607  7692 net.cpp:200] nms does not need backward computation.
I1109 23:04:56.568607  7692 net.cpp:200] resize does not need backward computation.
I1109 23:04:56.568607  7692 net.cpp:200] slice_res5c does not need backward computation.
I1109 23:04:56.568607  7692 net.cpp:200] res7a_branch2a_3d does not need backward computation.
…
I1109 23:04:56.596532  7692 upgrade_proto.cpp:67] Attempting to upgrade input file specified using deprecated input fields: ../../data/CNNModels/XNECT/StageII/new/net.prototxt
I1109 23:04:56.596532  7692 upgrade_proto.cpp:70] Successfully upgraded file specified using deprecated input fields.
W1109 23:04:56.596532  7692 upgrade_proto.cpp:72] Note that future Caffe releases will only support input layers and not input fields.
I1109 23:04:56.597529  7692 net.cpp:51] Initializing net from parameters: 
name: "blah"
state {
  phase: TEST
  level: 0
}
layer {
  name: "input"
  type: "Input"
  top: "data"
  input_param {
    shape {
      dim: 10
      dim: 66
      dim: 14
      dim: 1
    }
  }
}
layer {
  name: "split_input"
  type: "Slice"
  bottom: "data"
  top: "pose_2d_neck_rel"
  top: "vis_2d"
  top: "featmap_2_2d"
  slice_param {
    slice_point: 2
    slice_point: 3
    axis: 1
  }
}
layer {
  name: "slice_pose_2d_mean_rel"
  type: "Slice"
  bottom: "data"
  top: "head_data"
  top: "neck_data"
  top: "rshoul_data"
  top: "relbwr_data"
  top: "lshoul_data"
  top: "lelbwr_data"
  top: "rhip_data"
  top: "rkneank_data"
  top: "lhip_data"
  top: "lkneank_data"
  slice_param {
    slice_point: 1
    slice_point: 2
    slice_point: 3
    slice_point: 5
    slice_point: 6
    slice_point: 8
    slice_point: 9
    slice_point: 11
    slice_point: 12
    axis: 2
  }
}
layer {
  name: "torso_data"
  type: "Concat"
  bottom: "head_data"
  bottom: "neck_data"
  bottom: "rshoul_data"
  bottom: "lshoul_data"
  bottom: "rhip_data"
  bottom: "lhip_data"
  top: "torso_data"
  concat_param {
    axis: 2
  }
}
layer {
  name: "rarm_data"
  type: "Concat"
  bottom: "rshoul_data"
  bottom: "relbwr_data"
  top: "rarm_data"
  concat_param {
    axis: 2
  }
}
layer {
  name: "larm_data"
  type: "Concat"
  bottom: "lshoul_data"
  bottom: "lelbwr_data"
  top: "larm_data"
  concat_param {
    axis: 2
  }
}
layer {
  name: "rleg_data"
  type: "Concat"
  bottom: "rhip_data"
  bottom: "rkneank_data"
  top: "rleg_data"
  concat_param {
    axis: 2
  }
}
layer {
  name: "lleg_data"
  type: "Concat"
  bottom: "lhip_data"
  bottom: "lkneank_data"
  top: "lleg_data"
  concat_param {
    axis: 2
  }
}
layer {
  name: "conv1"
  type: "Convolution"
  bottom: "torso_data"
  top: "conv1"
  convolution_param {
    num_output: 96
    bias_term: true
    stride: 1
    weight_filler {
      type: "xavier"
    }
    kernel_h: 6
    kernel_w: 1
  }
}
layer {
  name: "conv1_relu"
  type: "ReLU"
  bottom: "conv1"
  top: "conv1"
}
layer {
  name: "conv2"
  type: "Convolution"
  bottom: "conv1"
  top: "conv2"
  convolution_param {
    num_output: 128
    bias_term: true
    stride: 1
    weight_filler {
      type: "xavier"
    }
    kernel_h: 1
    kernel_w: 1
  }
}
layer {
  name: "conv2_relu"
  type: "ReLU"
  bottom: "conv2"
  top: "conv2"
}
layer {
  name: "conv3"
  type: "Convolution"
  bottom: "conv2"
  top: "conv3"
  convolution_param {
    num_output: 128
    bias_term: true
    stride: 1
    weight_filler {
      type: "xavier"
    }
    kernel_h: 1
    kernel_w: 1
  }
}
layer {
  name: "conv3_relu"
  type: "ReLU"
  bottom: "conv3"
  top: "conv3"
}
layer {
  name: "conv4"
  type: "Convolution"
  bottom: "conv3"
  top: "conv4"
  convolution_param {
    num_output: 128
    bias_term: true
    stride: 1
    weight_filler {
      type: "xavier"
    }
    kernel_h: 1
    kernel_w: 1
  }
}
layer {
  name: "conv4_relu"
  type: "ReLU"
  bottom: "conv4"
  top: "conv4"
}
layer {
  name: "torso_pred_3d_pose_root_base"
  type: "InnerProduct"
  bottom: "conv4"
  top: "torso_pred_3d_pose_root_base"
  inner_product_param {
    num_output: 28
    bias_term: true
    weight_filler {
      type: "xavier"
    }
    bias_filler {
      type: "constant"
      value: 0
    }
  }
}
layer {
  name: "leg_conv4"
  type: "Convolution"
  bottom: "conv3"
  top: "leg_conv4"
  convolution_param {
    num_output: 32
    bias_term: true
    stride: 1
    weight_filler {
      type: "xavier"
    }
    kernel_h: 1
    kernel_w: 1
  }
}
layer {
  name: "leg_conv4_relu"
  type: "ReLU"
  bottom: "leg_conv4"
  top: "leg_conv4"
}
layer {
  name: "arm_conv4"
  type: "Convolution"
  bottom: "conv3"
  top: "arm_conv4"
  convolution_param {
    num_output: 32
    bias_term: true
    stride: 1
    weight_filler {
      type: "xavier"
    }
    kernel_h: 1
    kernel_w: 1
  }
}
layer {
  name: "arm_conv4_relu"
  type: "ReLU"
  bottom: "arm_conv4"
  top: "arm_conv4"
}
layer {
  name: "rleg_conv1"
  type: "Convolution"
  bottom: "rleg_data"
  top: "rleg_conv1"
  convolution_param {
    num_output: 64
    bias_term: true
    stride: 1
    weight_filler {
      type: "xavier"
    }
    kernel_h: 3
    kernel_w: 1
  }
}
layer {
  name: "rleg_conv1_relu"
  type: "ReLU"
  bottom: "rleg_conv1"
  top: "rleg_conv1"
}
layer {
  name: "rleg_conv1c"
  type: "Concat"
  bottom: "rleg_conv1"
  bottom: "leg_conv4"
  top: "rleg_conv1c"
  concat_param {
    axis: 1
  }
}
layer {
  name: "rleg_conv2"
  type: "Convolution"
  bottom: "rleg_conv1c"
  top: "rleg_conv2"
  convolution_param {
    num_output: 128
    bias_term: true
    stride: 1
    weight_filler {
      type: "xavier"
    }
    kernel_h: 1
    kernel_w: 1
  }
}
layer {
  name: "rleg_conv2_relu"
  type: "ReLU"
  bottom: "rleg_conv2"
  top: "rleg_conv2"
}
layer {
  name: "rleg_conv3"
  type: "Convolution"
  bottom: "rleg_conv2"
  top: "rleg_conv3"
  convolution_param {
    num_output: 128
    bias_term: true
    stride: 1
    weight_filler {
      type: "xavier"
    }
    kernel_h: 1
    kernel_w: 1
  }
}
layer {
  name: "rleg_conv3_relu"
  type: "ReLU"
  bottom: "rleg_conv3"
  top: "rleg_conv3"
}
layer {
  name: "rleg_pred_3d_pose_root_base"
  type: "InnerProduct"
  bottom: "rleg_conv3"
  top: "rleg_pred_3d_pose_root_base"
  inner_product_param {
    num_output: 9
    bias_term: true
    weight_filler {
      type: "xavier"
    }
    bias_filler {
      type: "constant"
      value: 0
    }
  }
}
layer {
  name: "lleg_conv1"
  type: "Convolution"
  bottom: "lleg_data"
  top: "lleg_conv1"
  convolution_param {
    num_output: 64
    bias_term: true
    stride: 1
    weight_filler {
      type: "xavier"
    }
    kernel_h: 3
    kernel_w: 1
  }
}
layer {
  name: "lleg_conv1_relu"
  type: "ReLU"
  bottom: "lleg_conv1"
  top: "lleg_conv1"
}
layer {
  name: "lleg_conv1c"
  type: "Concat"
  bottom: "lleg_conv1"
  bottom: "leg_conv4"
  top: "lleg_conv1c"
  concat_param {
    axis: 1
  }
}
layer {
  name: "lleg_conv2"
  type: "Convolution"
  bottom: "lleg_conv1c"
  top: "lleg_conv2"
  convolution_param {
    num_output: 128
    bias_term: true
    stride: 1
    weight_filler {
      type: "xavier"
    }
    kernel_h: 1
    kernel_w: 1
  }
}
layer {
  name: "lleg_conv2_relu"
  type: "ReLU"
  bottom: "lleg_conv2"
  top: "lleg_conv2"
}
layer {
  name: "lleg_conv3"
  type: "Convolution"
  bottom: "lleg_conv2"
  top: "lleg_conv3"
  convolution_param {
    num_output: 128
    bias_term: true
    stride: 1
    weight_filler {
      type: "xavier"
    }
    kernel_h: 1
    kernel_w: 1
  }
}
layer {
  name: "lleg_conv3_relu"
  type: "ReLU"
  bottom: "lleg_conv3"
  top: "lleg_conv3"
}
layer {
  name: "lleg_pred_3d_pose_root_base"
  type: "InnerProduct"
  bottom: "lleg_conv3"
  top: "lleg_pred_3d_pose_root_base"
  inner_product_param {
    num_output: 9
    bias_term: true
    weight_filler {
      type: "xavier"
    }
    bias_filler {
      type: "constant"
      value: 0
    }
  }
}
layer {
  name: "rarm_conv1"
  type: "Convolution"
  bottom: "rarm_data"
  top: "rarm_conv1"
  convolution_param {
    num_output: 64
    bias_term: true
    stride: 1
    weight_filler {
      type: "xavier"
    }
    kernel_h: 3
    kernel_w: 1
  }
}
layer {
  name: "rarm_conv1_relu"
  type: "ReLU"
  bottom: "rarm_conv1"
  top: "rarm_conv1"
}
layer {
  name: "rarm_conv1c"
  type: "Concat"
  bottom: "rarm_conv1"
  bottom: "arm_conv4"
  top: "rarm_conv1c"
  concat_param {
    axis: 1
  }
}
layer {
  name: "rarm_conv2"
  type: "Convolution"
  bottom: "rarm_conv1c"
  top: "rarm_conv2"
  convolution_param {
    num_output: 128
    bias_term: true
    stride: 1
    weight_filler {
      type: "xavier"
    }
    kernel_h: 1
    kernel_w: 1
  }
}
layer {
  name: "rarm_conv2_relu"
  type: "ReLU"
  bottom: "rarm_conv2"
  top: "rarm_conv2"
}
layer {
  name: "rarm_conv3"
  type: "Convolution"
  bottom: "rarm_conv2"
  top: "rarm_conv3"
  convolution_param {
    num_output: 128
    bias_term: true
    stride: 1
    weight_filler {
      type: "xavier"
    }
    kernel_h: 1
    kernel_w: 1
  }
}
layer {
  name: "rarm_conv3_relu"
  type: "ReLU"
  bottom: "rarm_conv3"
  top: "rarm_conv3"
}
layer {
  name: "rarm_pred_3d_pose_root_base"
  type: "InnerProduct"
  bottom: "rarm_conv3"
  top: "rarm_pred_3d_pose_root_base"
  inner_product_param {
    num_output: 9
    bias_term: true
    weight_filler {
      type: "xavier"
    }
    bias_filler {
      type: "constant"
      value: 0
    }
  }
}
layer {
  name: "larm_conv1"
  type: "Convolution"
  bottom: "larm_data"
  top: "larm_conv1"
  convolution_param {
    num_output: 64
    bias_term: true
    stride: 1
    weight_filler {
      type: "xavier"
    }
    kernel_h: 3
    kernel_w: 1
  }
}
layer {
  name: "larm_conv1_relu"
  type: "ReLU"
  bottom: "larm_conv1"
  top: "larm_conv1"
}
layer {
  name: "larm_conv1c"
  type: "Concat"
  bottom: "larm_conv1"
  bottom: "arm_conv4"
  top: "larm_conv1c"
  concat_param {
    axis: 1
  }
}
layer {
  name: "larm_conv2"
  type: "Convolution"
  bottom: "larm_conv1c"
  top: "larm_conv2"
  convolution_param {
    num_output: 128
    bias_term: true
    stride: 1
    weight_filler {
      type: "xavier"
    }
    kernel_h: 1
    kernel_w: 1
  }
}
layer {
  name: "larm_conv2_relu"
  type: "ReLU"
  bottom: "larm_conv2"
  top: "larm_conv2"
}
layer {
  name: "larm_conv3"
  type: "Convolution"
  bottom: "larm_conv2"
  top: "larm_conv3"
  convolution_param {
    num_output: 128
    bias_term: true
    stride: 1
    weight_filler {
      type: "xavier"
    }
    kernel_h: 1
    kernel_w: 1
  }
}
layer {
  name: "larm_conv3_relu"
  type: "ReLU"
  bottom: "larm_conv3"
  top: "larm_conv3"
}
layer {
  name: "larm_pred_3d_pose_root_base"
  type: "InnerProduct"
  bottom: "larm_conv3"
  top: "larm_pred_3d_pose_root_base"
  inner_product_param {
    num_output: 9
    bias_term: true
    weight_filler {
      type: "xavier"
    }
    bias_filler {
      type: "constant"
      value: 0
    }
  }
}
layer {
  name: "slice_torso_pred_3d_pose_root_base"
  type: "Slice"
  bottom: "torso_pred_3d_pose_root_base"
  top: "head_neck_rshoul_3d_pose_unscaled_root_x"
  top: "lshoul_3d_pose_unscaled_root_x"
  top: "rhip_3d_pose_unscaled_root_x"
  top: "lhip_3d_pose_unscaled_root_x"
  top: "pelvis_spine_head2_3d_pose_unscaled_root_x"
  top: "head_neck_rshoul_3d_pose_unscaled_root_y"
  top: "lshoul_3d_pose_unscaled_root_y"
  top: "rhip_3d_pose_unscaled_root_y"
  top: "lhip_3d_pose_unscaled_root_y"
  top: "pelvis_spine_head2_3d_pose_unscaled_root_y"
  top: "head_neck_rshoul_3d_pose_unscaled_root_z"
  top: "lshoul_3d_pose_unscaled_root_z"
  top: "rhip_3d_pose_unscaled_root_z"
  top: "lhip_3d_pose_unscaled_root_z"
  top: "pelvis_spine_head2_3d_pose_unscaled_root_z"
  top: "pred_2d_to_3d_scale_root"
  slice_param {
    slice_point: 3
    slice_point: 4
    slice_point: 5
    slice_point: 6
    slice_point: 9
    slice_point: 12
    slice_point: 13
    slice_point: 14
    slice_point: 15
    slice_point: 18
    slice_point: 21
    slice_point: 22
    slice_point: 23
    slice_point: 24
    slice_point: 27
    axis: 1
  }
}
layer {
  name: "slice_rleg_pred_3d_pose_root_base"
  type: "Slice"
  bottom: "rleg_pred_3d_pose_root_base"
  top: "rknee_ank_3d_pose_unscaled_root_x"
  top: "rfoot_3d_pose_unscaled_root_x"
  top: "rknee_ank_3d_pose_unscaled_root_y"
  top: "rfoot_3d_pose_unscaled_root_y"
  top: "rknee_ank_3d_pose_unscaled_root_z"
  top: "rfoot_3d_pose_unscaled_root_z"
  slice_param {
    slice_point: 2
    slice_point: 3
    slice_point: 5
    slice_point: 6
    slice_point: 8
    axis: 1
  }
}
layer {
  name: "slice_lleg_pred_3d_pose_root_base"
  type: "Slice"
  bottom: "lleg_pred_3d_pose_root_base"
  top: "lknee_ank_3d_pose_unscaled_root_x"
  top: "lfoot_3d_pose_unscaled_root_x"
  top: "lknee_ank_3d_pose_unscaled_root_y"
  top: "lfoot_3d_pose_unscaled_root_y"
  top: "lknee_ank_3d_pose_unscaled_root_z"
  top: "lfoot_3d_pose_unscaled_root_z"
  slice_param {
    slice_point: 2
    slice_point: 3
    slice_point: 5
    slice_point: 6
    slice_point: 8
    axis: 1
  }
}
layer {
  name: "slice_rarm_pred_3d_pose_root_base"
  type: "Slice"
  bottom: "rarm_pred_3d_pose_root_base"
  top: "relb_wr_3d_pose_unscaled_root_x"
  top: "rhand_3d_pose_unscaled_root_x"
  top: "relb_wr_3d_pose_unscaled_root_y"
  top: "rhand_3d_pose_unscaled_root_y"
  top: "relb_wr_3d_pose_unscaled_root_z"
  top: "rhand_3d_pose_unscaled_root_z"
  slice_param {
    slice_point: 2
    slice_point: 3
    slice_point: 5
    slice_point: 6
    slice_point: 8
    axis: 1
  }
}
layer {
  name: "slice_larm_pred_3d_pose_root_base"
  type: "Slice"
  bottom: "larm_pred_3d_pose_root_base"
  top: "lelb_wr_3d_pose_unscaled_root_x"
  top: "lhand_3d_pose_unscaled_root_x"
  top: "lelb_wr_3d_pose_unscaled_root_y"
  top: "lhand_3d_pose_unscaled_root_y"
  top: "lelb_wr_3d_pose_unscaled_root_z"
  top: "lhand_3d_pose_unscaled_root_z"
  slice_param {
    slice_point: 2
    slice_point: 3
    slice_point: 5
    slice_point: 6
    slice_point: 8
    axis: 1
  }
}
layer {
  name: "concat_outputs"
  type: "Concat"
  bottom: "head_neck_rshoul_3d_pose_unscaled_root_x"
  bottom: "relb_wr_3d_pose_unscaled_root_x"
  bottom: "lshoul_3d_pose_unscaled_root_x"
  bottom: "lelb_wr_3d_pose_unscaled_root_x"
  bottom: "rhip_3d_pose_unscaled_root_x"
  bottom: "rknee_ank_3d_pose_unscaled_root_x"
  bottom: "lhip_3d_pose_unscaled_root_x"
  bottom: "lknee_ank_3d_pose_unscaled_root_x"
  bottom: "pelvis_spine_head2_3d_pose_unscaled_root_x"
  bottom: "rhand_3d_pose_unscaled_root_x"
  bottom: "lhand_3d_pose_unscaled_root_x"
  bottom: "rfoot_3d_pose_unscaled_root_x"
  bottom: "lfoot_3d_pose_unscaled_root_x"
  bottom: "head_neck_rshoul_3d_pose_unscaled_root_y"
  bottom: "relb_wr_3d_pose_unscaled_root_y"
  bottom: "lshoul_3d_pose_unscaled_root_y"
  bottom: "lelb_wr_3d_pose_unscaled_root_y"
  bottom: "rhip_3d_pose_unscaled_root_y"
  bottom: "rknee_ank_3d_pose_unscaled_root_y"
  bottom: "lhip_3d_pose_unscaled_root_y"
  bottom: "lknee_ank_3d_pose_unscaled_root_y"
  bottom: "pelvis_spine_head2_3d_pose_unscaled_root_y"
  bottom: "rhand_3d_pose_unscaled_root_y"
  bottom: "lhand_3d_pose_unscaled_root_y"
  bottom: "rfoot_3d_pose_unscaled_root_y"
  bottom: "lfoot_3d_pose_unscaled_root_y"
  bottom: "head_neck_rshoul_3d_pose_unscaled_root_z"
  bottom: "relb_wr_3d_pose_unscaled_root_z"
  bottom: "lshoul_3d_pose_unscaled_root_z"
  bottom: "lelb_wr_3d_pose_unscaled_root_z"
  bottom: "rhip_3d_pose_unscaled_root_z"
  bottom: "rknee_ank_3d_pose_unscaled_root_z"
  bottom: "lhip_3d_pose_unscaled_root_z"
  bottom: "lknee_ank_3d_pose_unscaled_root_z"
  bottom: "pelvis_spine_head2_3d_pose_unscaled_root_z"
  bottom: "rhand_3d_pose_unscaled_root_z"
  bottom: "lhand_3d_pose_unscaled_root_z"
  bottom: "rfoot_3d_pose_unscaled_root_z"
  bottom: "lfoot_3d_pose_unscaled_root_z"
  top: "pred_3d_pose_unscaled_root"
  concat_param {
    axis: 1
  }
}
layer {
  name: "pred_scale_tiled_root"
  type: "Tile"
  bottom: "pred_2d_to_3d_scale_root"
  top: "pred_scale_tiled_root"
  tile_param {
    axis: 1
    tiles: 63
  }
}
layer {
  name: "pred_3d_pose_root"
  type: "Eltwise"
  bottom: "pred_scale_tiled_root"
  bottom: "pred_3d_pose_unscaled_root"
  top: "pred_3d_pose_root"
  eltwise_param {
    operation: PROD
  }
}
layer {
  name: "concat_3d_pose_and_scale_root"
  type: "Concat"
  bottom: "pred_3d_pose_root"
  bottom: "pred_2d_to_3d_scale_root"
  top: "pred_3d_pose_scale_root_partwise"
  concat_param {
    axis: 1
  }
}
layer {
  name: "conv1_full"
  type: "Convolution"
  bottom: "data"
  top: "conv1_full"
  convolution_param {
    num_output: 160
    bias_term: true
    stride: 1
    weight_filler {
      type: "xavier"
    }
    kernel_h: 14
    kernel_w: 1
  }
}
layer {
  name: "conv1_relu_full"
  type: "ReLU"
  bottom: "conv1_full"
  top: "conv1_full"
}
layer {
  name: "conv2_full"
  type: "Convolution"
  bottom: "conv1_full"
  top: "conv2_full"
  convolution_param {
    num_output: 256
    bias_term: true
    stride: 1
    weight_filler {
      type: "xavier"
    }
    kernel_h: 1
    kernel_w: 1
  }
}
layer {
  name: "conv2_relu_full"
  type: "ReLU"
  bottom: "conv2_full"
  top: "conv2_full"
}
layer {
  name: "conv3_full"
  type: "Convolution"
  bottom: "conv2_full"
  top: "conv3_full"
  convolution_param {
    num_output: 256
    bias_term: true
    stride: 1
    weight_filler {
      type: "xavier"
    }
    kernel_h: 1
    kernel_w: 1
  }
}
layer {
  name: "conv3_relu_full"
  type: "ReLU"
  bottom: "conv3_full"
  top: "conv3_full"
}
layer {
  name: "conv4_full"
  type: "Convolution"
  bottom: "conv3_full"
  top: "conv4_full"
  convolution_param {
    num_output: 128
    bias_term: true
    stride: 1
    weight_filler {
      type: "xavier"
    }
    kernel_h: 1
    kernel_w: 1
  }
}
layer {
  name: "conv4_relu_full"
  type: "ReLU"
  bottom: "conv4_full"
  top: "conv4_full"
}
layer {
  name: "full_pred_3d_pose_root_base"
  type: "InnerProduct"
  bottom: "conv4_full"
  top: "full_pred_3d_pose_root_base"
  inner_product_param {
    num_output: 64
    bias_term: true
    weight_filler {
      type: "xavier"
    }
    bias_filler {
      type: "constant"
      value: 0
    }
  }
}
layer {
  name: "slice_full_pred_3d_pose_root_base"
  type: "Slice"
  bottom: "full_pred_3d_pose_root_base"
  top: "full_pred_3d_pose_unscaled_root"
  top: "full_pred_2d_to_3d_scale_root"
  slice_param {
    slice_point: 63
    axis: 1
  }
}
layer {
  name: "full_pred_scale_tiled_root"
  type: "Tile"
  bottom: "full_pred_2d_to_3d_scale_root"
  top: "full_pred_scale_tiled_root"
  tile_param {
    axis: 1
    tiles: 63
  }
}
layer {
  name: "full_pred_3d_pose_root"
  type: "Eltwise"
  bottom: "full_pred_scale_tiled_root"
  bottom: "full_pred_3d_pose_unscaled_root"
  top: "full_pred_3d_pose_root"
  eltwise_param {
    operation: PROD
  }
}
layer {
  name: "concat_full_3d_pose_and_scale_root"
  type: "Concat"
  bottom: "full_pred_3d_pose_root"
  bottom: "full_pred_2d_to_3d_scale_root"
  top: "pred_3d_pose_scale_root_full"
  concat_param {
    axis: 1
  }
}
layer {
  name: "conv1_vis"
  type: "Convolution"
  bottom: "vis_2d"
  top: "conv1_vis"
  convolution_param {
    num_output: 96
    bias_term: true
    stride: 1
    weight_filler {
      type: "xavier"
    }
    kernel_h: 14
    kernel_w: 1
  }
}
layer {
  name: "conv1_relu_vis"
  type: "ReLU"
  bottom: "conv1_vis"
  top: "conv1_vis"
}
layer {
  name: "conv2_vis"
  type: "Convolution"
  bottom: "conv1_vis"
  top: "conv2_vis"
  convolution_param {
    num_output: 128
    bias_term: true
    stride: 1
    weight_filler {
      type: "xavier"
    }
    kernel_h: 1
    kernel_w: 1
  }
}
layer {
  name: "conv2_relu_vis"
  type: "ReLU"
  bottom: "conv2_vis"
  top: "conv2_vis"
}
layer {
  name: "conv3_vis"
  type: "Convolution"
  bottom: "conv2_vis"
  top: "conv3_vis"
  convolution_param {
    num_output: 128
    bias_term: true
    stride: 1
    weight_filler {
      type: "xavier"
    }
    kernel_h: 1
    kernel_w: 1
  }
}
layer {
  name: "conv3_relu_vis"
  type: "ReLU"
  bottom: "conv3_vis"
  top: "conv3_vis"
}
layer {
  name: "per_joint_selector_a"
  type: "InnerProduct"
  bottom: "conv3_vis"
  top: "per_joint_selector_a"
  inner_product_param {
    num_output: 21
    bias_term: true
    weight_filler {
      type: "xavier"
    }
    bias_filler {
      type: "constant"
      value: 0
    }
  }
}
layer {
  name: "per_joint_selector_sigmoid"
  type: "Sigmoid"
  bottom: "per_joint_selector_a"
  top: "per_joint_selector_a"
}
layer {
  name: "per_joint_selector_invert"
  type: "Power"
  bottom: "per_joint_selector_a"
  top: "per_joint_selector_b"
  power_param {
    power: 1
    scale: -1
    shift: 1
  }
}
layer {
  name: "per_joint_selector_a_XYZ"
  type: "Tile"
  bottom: "per_joint_selector_a"
  top: "per_joint_selector_a_XYZ"
  tile_param {
    axis: 1
    tiles: 3
  }
}
layer {
  name: "per_joint_selector_b_XYZ"
  type: "Tile"
  bottom: "per_joint_selector_b"
  top: "per_joint_selector_b_XYZ"
  tile_param {
    axis: 1
    tiles: 3
  }
}
layer {
  name: "final_pred_3d_pose_root_b"
  type: "Eltwise"
  bottom: "per_joint_selector_b_XYZ"
  bottom: "full_pred_3d_pose_root"
  top: "final_pred_3d_pose_root_b"
  eltwise_param {
    operation: PROD
  }
}
layer {
  name: "final_pred_3d_pose_root_a"
  type: "Eltwise"
  bottom: "per_joint_selector_a_XYZ"
  bottom: "pred_3d_pose_root"
  top: "final_pred_3d_pose_root_a"
  eltwise_param {
    operation: PROD
  }
}
layer {
  name: "final_pred_3d_pose_root"
  type: "Eltwise"
  bottom: "final_pred_3d_pose_root_a"
  bottom: "final_pred_3d_pose_root_b"
  top: "final_pred_3d_pose_root"
  eltwise_param {
    operation: SUM
  }
}
layer {
  name: "concat_3d_pose_and_scale_root"
  type: "Concat"
  bottom: "final_pred_3d_pose_root"
  bottom: "pred_2d_to_3d_scale_root"
  top: "pred_3d_pose_scale_root"
  concat_param {
    axis: 1
  }
}
layer {
  name: "silence_feat"
  type: "Silence"
  bottom: "pred_3d_pose_scale_root_partwise"
  bottom: "pred_3d_pose_scale_root_full"
  bottom: "pose_2d_neck_rel"
  bottom: "featmap_2_2d"
}
I1109 23:04:56.597529  7692 layer_factory.cpp:80] Creating layer input
I1109 23:04:56.597529  7692 net.cpp:84] Creating Layer input
I1109 23:04:56.597529  7692 net.cpp:380] input -> data
I1109 23:04:56.597529  7692 net.cpp:122] Setting up input
I1109 23:04:56.597529  7692 net.cpp:129] Top shape: 10 66 14 1 (9240)
I1109 23:04:56.597529  7692 net.cpp:137] Memory required for data: 36960
I1109 23:04:56.597529  7692 layer_factory.cpp:80] Creating layer data_input_0_split
I1109 23:04:56.597529  7692 net.cpp:84] Creating Layer data_input_0_split
I1109 23:04:56.597529  7692 net.cpp:406] data_input_0_split <- data
I1109 23:04:56.597529  7692 net.cpp:380] data_input_0_split -> data_input_0_split_0
I1109 23:04:56.597529  7692 net.cpp:380] data_input_0_split -> data_input_0_split_1
I1109 23:04:56.597529  7692 net.cpp:380] data_input_0_split -> data_input_0_split_2
I1109 23:04:56.597529  7692 net.cpp:122] Setting up data_input_0_split
I1109 23:04:56.597529  7692 net.cpp:129] Top shape: 10 66 14 1 (9240)
I1109 23:04:56.597529  7692 net.cpp:129] Top shape: 10 66 14 1 (9240)
I1109 23:04:56.597529  7692 net.cpp:129] Top shape: 10 66 14 1 (9240)
I1109 23:04:56.597529  7692 net.cpp:137] Memory required for data: 147840
I1109 23:04:56.597529  7692 layer_factory.cpp:80] Creating layer split_input
I1109 23:04:56.597529  7692 net.cpp:84] Creating Layer split_input
I1109 23:04:56.597529  7692 net.cpp:406] split_input <- data_input_0_split_0
I1109 23:04:56.597529  7692 net.cpp:380] split_input -> pose_2d_neck_rel
I1109 23:04:56.597529  7692 net.cpp:380] split_input -> vis_2d
I1109 23:04:56.597529  7692 net.cpp:380] split_input -> featmap_2_2d
I1109 23:04:56.597529  7692 net.cpp:122] Setting up split_input
I1109 23:04:56.597529  7692 net.cpp:129] Top shape: 10 2 14 1 (280)
I1109 23:04:56.597529  7692 net.cpp:129] Top shape: 10 1 14 1 (140)
I1109 23:04:56.598527  7692 net.cpp:129] Top shape: 10 63 14 1 (8820)
I1109 23:04:56.598527  7692 net.cpp:137] Memory required for data: 184800
I1109 23:04:56.598527  7692 layer_factory.cpp:80] Creating layer slice_pose_2d_mean_rel
I1109 23:04:56.598527  7692 net.cpp:84] Creating Layer slice_pose_2d_mean_rel
I1109 23:04:56.598527  7692 net.cpp:406] slice_pose_2d_mean_rel <- data_input_0_split_1
I1109 23:04:56.598527  7692 net.cpp:380] slice_pose_2d_mean_rel -> head_data
I1109 23:04:56.598527  7692 net.cpp:380] slice_pose_2d_mean_rel -> neck_data
I1109 23:04:56.598527  7692 net.cpp:380] slice_pose_2d_mean_rel -> rshoul_data
I1109 23:04:56.598527  7692 net.cpp:380] slice_pose_2d_mean_rel -> relbwr_data
I1109 23:04:56.598527  7692 net.cpp:380] slice_pose_2d_mean_rel -> lshoul_data
I1109 23:04:56.598527  7692 net.cpp:380] slice_pose_2d_mean_rel -> lelbwr_data
I1109 23:04:56.598527  7692 net.cpp:380] slice_pose_2d_mean_rel -> rhip_data
I1109 23:04:56.598527  7692 net.cpp:380] slice_pose_2d_mean_rel -> rkneank_data
I1109 23:04:56.598527  7692 net.cpp:380] slice_pose_2d_mean_rel -> lhip_data
I1109 23:04:56.598527  7692 net.cpp:380] slice_pose_2d_mean_rel -> lkneank_data
…
I1109 23:04:56.601519  7692 net.cpp:406] arm_conv4_arm_conv4_relu_0_split <- arm_conv4
I1109 23:04:56.601519  7692 net.cpp:380] arm_conv4_arm_conv4_relu_0_split -> arm_conv4_arm_conv4_relu_0_split_0
I1109 23:04:56.601519  7692 net.cpp:380] arm_conv4_arm_conv4_relu_0_split -> arm_conv4_arm_conv4_relu_0_split_1
I1109 23:04:56.601519  7692 net.cpp:122] Setting up arm_conv4_arm_conv4_relu_0_split
I1109 23:04:56.601519  7692 net.cpp:129] Top shape: 10 32 1 1 (320)
I1109 23:04:56.601519  7692 net.cpp:129] Top shape: 10 32 1 1 (320)
I1109 23:04:56.601519  7692 net.cpp:137] Memory required for data: 355520
I1109 23:04:56.601519  7692 layer_factory.cpp:80] Creating layer rleg_conv1
I1109 23:04:56.601519  7692 net.cpp:84] Creating Layer rleg_conv1
I1109 23:04:56.601519  7692 net.cpp:406] rleg_conv1 <- rleg_data
I1109 23:04:56.601519  7692 net.cpp:380] rleg_conv1 -> rleg_conv1
I1109 23:04:56.601519  7692 net.cpp:122] Setting up rleg_conv1
I1109 23:04:56.601519  7692 net.cpp:129] Top shape: 10 64 1 1 (640)
I1109 23:04:56.601519  7692 net.cpp:137] Memory required for data: 358080
I1109 23:04:56.601519  7692 layer_factory.cpp:80] Creating layer rleg_conv1_relu
I1109 23:04:56.601519  7692 net.cpp:84] Creating Layer rleg_conv1_relu
I1109 23:04:56.601519  7692 net.cpp:406] rleg_conv1_relu <- rleg_conv1
I1109 23:04:56.601519  7692 net.cpp:367] rleg_conv1_relu -> rleg_conv1 (in-place)
I1109 23:04:56.601519  7692 net.cpp:122] Setting up rleg_conv1_relu
I1109 23:04:56.601519  7692 net.cpp:129] Top shape: 10 64 1 1 (640)
I1109 23:04:56.601519  7692 net.cpp:137] Memory required for data: 360640
I1109 23:04:56.601519  7692 layer_factory.cpp:80] Creating layer rleg_conv1c
I1109 23:04:56.601519  7692 net.cpp:84] Creating Layer rleg_conv1c
I1109 23:04:56.601519  7692 net.cpp:406] rleg_conv1c <- rleg_conv1
I1109 23:04:56.601519  7692 net.cpp:406] rleg_conv1c <- leg_conv4_leg_conv4_relu_0_split_0
I1109 23:04:56.601519  7692 net.cpp:380] rleg_conv1c -> rleg_conv1c
I1109 23:04:56.601519  7692 net.cpp:122] Setting up rleg_conv1c
I1109 23:04:56.601519  7692 net.cpp:129] Top shape: 10 96 1 1 (960)
I1109 23:04:56.601519  7692 net.cpp:137] Memory required for data: 364480
I1109 23:04:56.601519  7692 layer_factory.cpp:80] Creating layer rleg_conv2
I1109 23:04:56.601519  7692 net.cpp:84] Creating Layer rleg_conv2
I1109 23:04:56.601519  7692 net.cpp:406] rleg_conv2 <- rleg_conv1c
I1109 23:04:56.601519  7692 net.cpp:380] rleg_conv2 -> rleg_conv2
I1109 23:04:56.602516  7692 net.cpp:122] Setting up rleg_conv2
I1109 23:04:56.602516  7692 net.cpp:129] Top shape: 10 128 1 1 (1280)
I1109 23:04:56.602516  7692 net.cpp:137] Memory required for data: 369600
I1109 23:04:56.602516  7692 layer_factory.cpp:80] Creating layer rleg_conv2_relu
I1109 23:04:56.602516  7692 net.cpp:84] Creating Layer rleg_conv2_relu
I1109 23:04:56.602516  7692 net.cpp:406] rleg_conv2_relu <- rleg_conv2
I1109 23:04:56.602516  7692 net.cpp:367] rleg_conv2_relu -> rleg_conv2 (in-place)
I1109 23:04:56.602516  7692 net.cpp:122] Setting up rleg_conv2_relu
I1109 23:04:56.602516  7692 net.cpp:129] Top shape: 10 128 1 1 (1280)
I1109 23:04:56.602516  7692 net.cpp:137] Memory required for data: 374720
I1109 23:04:56.602516  7692 layer_factory.cpp:80] Creating layer rleg_conv3
I1109 23:04:56.602516  7692 net.cpp:84] Creating Layer rleg_conv3
I1109 23:04:56.602516  7692 net.cpp:406] rleg_conv3 <- rleg_conv2
I1109 23:04:56.602516  7692 net.cpp:380] rleg_conv3 -> rleg_conv3
I1109 23:04:56.602516  7692 net.cpp:122] Setting up rleg_conv3
I1109 23:04:56.602516  7692 net.cpp:129] Top shape: 10 128 1 1 (1280)
I1109 23:04:56.602516  7692 net.cpp:137] Memory required for data: 379840
I1109 23:04:56.602516  7692 layer_factory.cpp:80] Creating layer rleg_conv3_relu
I1109 23:04:56.602516  7692 net.cpp:84] Creating Layer rleg_conv3_relu
I1109 23:04:56.602516  7692 net.cpp:406] rleg_conv3_relu <- rleg_conv3
I1109 23:04:56.602516  7692 net.cpp:367] rleg_conv3_relu -> rleg_conv3 (in-place)
I1109 23:04:56.602516  7692 net.cpp:122] Setting up rleg_conv3_relu
I1109 23:04:56.602516  7692 net.cpp:129] Top shape: 10 128 1 1 (1280)
I1109 23:04:56.602516  7692 net.cpp:137] Memory required for data: 384960
I1109 23:04:56.602516  7692 layer_factory.cpp:80] Creating layer rleg_pred_3d_pose_root_base
I1109 23:04:56.602516  7692 net.cpp:84] Creating Layer rleg_pred_3d_pose_root_base
I1109 23:04:56.602516  7692 net.cpp:406] rleg_pred_3d_pose_root_base <- rleg_conv3
I1109 23:04:56.602516  7692 net.cpp:380] rleg_pred_3d_pose_root_base -> rleg_pred_3d_pose_root_base
I1109 23:04:56.602516  7692 net.cpp:122] Setting up rleg_pred_3d_pose_root_base
I1109 23:04:56.602516  7692 net.cpp:129] Top shape: 10 9 (90)
I1109 23:04:56.602516  7692 net.cpp:137] Memory required for data: 385320
I1109 23:04:56.602516  7692 layer_factory.cpp:80] Creating layer lleg_conv1
I1109 23:04:56.602516  7692 net.cpp:84] Creating Layer lleg_conv1
I1109 23:04:56.602516  7692 net.cpp:406] lleg_conv1 <- lleg_data
I1109 23:04:56.602516  7692 net.cpp:380] lleg_conv1 -> lleg_conv1
I1109 23:04:56.602516  7692 net.cpp:122] Setting up lleg_conv1
I1109 23:04:56.602516  7692 net.cpp:129] Top shape: 10 64 1 1 (640)
I1109 23:04:56.602516  7692 net.cpp:137] Memory required for data: 387880
I1109 23:04:56.602516  7692 layer_factory.cpp:80] Creating layer lleg_conv1_relu
I1109 23:04:56.602516  7692 net.cpp:84] Creating Layer lleg_conv1_relu
I1109 23:04:56.602516  7692 net.cpp:406] lleg_conv1_relu <- lleg_conv1
I1109 23:04:56.602516  7692 net.cpp:367] lleg_conv1_relu -> lleg_conv1 (in-place)
I1109 23:04:56.602516  7692 net.cpp:122] Setting up lleg_conv1_relu
I1109 23:04:56.602516  7692 net.cpp:129] Top shape: 10 64 1 1 (640)
I1109 23:04:56.602516  7692 net.cpp:137] Memory required for data: 390440
I1109 23:04:56.602516  7692 layer_factory.cpp:80] Creating layer lleg_conv1c
I1109 23:04:56.602516  7692 net.cpp:84] Creating Layer lleg_conv1c
I1109 23:04:56.602516  7692 net.cpp:406] lleg_conv1c <- lleg_conv1
I1109 23:04:56.602516  7692 net.cpp:406] lleg_conv1c <- leg_conv4_leg_conv4_relu_0_split_1
I1109 23:04:56.602516  7692 net.cpp:380] lleg_conv1c -> lleg_conv1c
I1109 23:04:56.602516  7692 net.cpp:122] Setting up lleg_conv1c
I1109 23:04:56.602516  7692 net.cpp:129] Top shape: 10 96 1 1 (960)
I1109 23:04:56.602516  7692 net.cpp:137] Memory required for data: 394280
I1109 23:04:56.602516  7692 layer_factory.cpp:80] Creating layer lleg_conv2
I1109 23:04:56.602516  7692 net.cpp:84] Creating Layer lleg_conv2
I1109 23:04:56.602516  7692 net.cpp:406] lleg_conv2 <- lleg_conv1c
I1109 23:04:56.602516  7692 net.cpp:380] lleg_conv2 -> lleg_conv2
I1109 23:04:56.603513  7692 net.cpp:122] Setting up lleg_conv2
I1109 23:04:56.603513  7692 net.cpp:129] Top shape: 10 128 1 1 (1280)
I1109 23:04:56.603513  7692 net.cpp:137] Memory required for data: 399400
I1109 23:04:56.603513  7692 layer_factory.cpp:80] Creating layer lleg_conv2_relu
I1109 23:04:56.603513  7692 net.cpp:84] Creating Layer lleg_conv2_relu
I1109 23:04:56.603513  7692 net.cpp:406] lleg_conv2_relu <- lleg_conv2
I1109 23:04:56.603513  7692 net.cpp:367] lleg_conv2_relu -> lleg_conv2 (in-place)
I1109 23:04:56.603513  7692 net.cpp:122] Setting up lleg_conv2_relu
I1109 23:04:56.603513  7692 net.cpp:129] Top shape: 10 128 1 1 (1280)
I1109 23:04:56.603513  7692 net.cpp:137] Memory required for data: 404520
I1109 23:04:56.603513  7692 layer_factory.cpp:80] Creating layer lleg_conv3
I1109 23:04:56.603513  7692 net.cpp:84] Creating Layer lleg_conv3
I1109 23:04:56.603513  7692 net.cpp:406] lleg_conv3 <- lleg_conv2
I1109 23:04:56.603513  7692 net.cpp:380] lleg_conv3 -> lleg_conv3
I1109 23:04:56.603513  7692 net.cpp:122] Setting up lleg_conv3
I1109 23:04:56.603513  7692 net.cpp:129] Top shape: 10 128 1 1 (1280)
I1109 23:04:56.603513  7692 net.cpp:137] Memory required for data: 409640
I1109 23:04:56.603513  7692 layer_factory.cpp:80] Creating layer lleg_conv3_relu
I1109 23:04:56.603513  7692 net.cpp:84] Creating Layer lleg_conv3_relu
I1109 23:04:56.603513  7692 net.cpp:406] lleg_conv3_relu <- lleg_conv3
I1109 23:04:56.603513  7692 net.cpp:367] lleg_conv3_relu -> lleg_conv3 (in-place)
I1109 23:04:56.603513  7692 net.cpp:122] Setting up lleg_conv3_relu
I1109 23:04:56.603513  7692 net.cpp:129] Top shape: 10 128 1 1 (1280)
I1109 23:04:56.603513  7692 net.cpp:137] Memory required for data: 414760
I1109 23:04:56.603513  7692 layer_factory.cpp:80] Creating layer lleg_pred_3d_pose_root_base
I1109 23:04:56.603513  7692 net.cpp:84] Creating Layer lleg_pred_3d_pose_root_base
I1109 23:04:56.603513  7692 net.cpp:406] lleg_pred_3d_pose_root_base <- lleg_conv3
I1109 23:04:56.603513  7692 net.cpp:380] lleg_pred_3d_pose_root_base -> lleg_pred_3d_pose_root_base
I1109 23:04:56.603513  7692 net.cpp:122] Setting up lleg_pred_3d_pose_root_base
I1109 23:04:56.603513  7692 net.cpp:129] Top shape: 10 9 (90)
I1109 23:04:56.603513  7692 net.cpp:137] Memory required for data: 415120
I1109 23:04:56.603513  7692 layer_factory.cpp:80] Creating layer rarm_conv1
I1109 23:04:56.603513  7692 net.cpp:84] Creating Layer rarm_conv1
I1109 23:04:56.603513  7692 net.cpp:406] rarm_conv1 <- rarm_data
I1109 23:04:56.603513  7692 net.cpp:380] rarm_conv1 -> rarm_conv1
I1109 23:04:56.603513  7692 net.cpp:122] Setting up rarm_conv1
I1109 23:04:56.603513  7692 net.cpp:129] Top shape: 10 64 1 1 (640)
I1109 23:04:56.603513  7692 net.cpp:137] Memory required for data: 417680
I1109 23:04:56.603513  7692 layer_factory.cpp:80] Creating layer rarm_conv1_relu
I1109 23:04:56.603513  7692 net.cpp:84] Creating Layer rarm_conv1_relu
I1109 23:04:56.603513  7692 net.cpp:406] rarm_conv1_relu <- rarm_conv1
I1109 23:04:56.603513  7692 net.cpp:367] rarm_conv1_relu -> rarm_conv1 (in-place)
I1109 23:04:56.603513  7692 net.cpp:122] Setting up rarm_conv1_relu
I1109 23:04:56.603513  7692 net.cpp:129] Top shape: 10 64 1 1 (640)
I1109 23:04:56.604511  7692 net.cpp:137] Memory required for data: 420240
I1109 23:04:56.604511  7692 layer_factory.cpp:80] Creating layer rarm_conv1c
I1109 23:04:56.604511  7692 net.cpp:84] Creating Layer rarm_conv1c
I1109 23:04:56.604511  7692 net.cpp:406] rarm_conv1c <- rarm_conv1
I1109 23:04:56.604511  7692 net.cpp:406] rarm_conv1c <- arm_conv4_arm_conv4_relu_0_split_0
I1109 23:04:56.604511  7692 net.cpp:380] rarm_conv1c -> rarm_conv1c
I1109 23:04:56.604511  7692 net.cpp:122] Setting up rarm_conv1c
I1109 23:04:56.604511  7692 net.cpp:129] Top shape: 10 96 1 1 (960)
I1109 23:04:56.604511  7692 net.cpp:137] Memory required for data: 424080
I1109 23:04:56.604511  7692 layer_factory.cpp:80] Creating layer rarm_conv2
I1109 23:04:56.604511  7692 net.cpp:84] Creating Layer rarm_conv2
I1109 23:04:56.604511  7692 net.cpp:406] rarm_conv2 <- rarm_conv1c
I1109 23:04:56.604511  7692 net.cpp:380] rarm_conv2 -> rarm_conv2
I1109 23:04:56.604511  7692 net.cpp:122] Setting up rarm_conv2
I1109 23:04:56.604511  7692 net.cpp:129] Top shape: 10 128 1 1 (1280)
I1109 23:04:56.604511  7692 net.cpp:137] Memory required for data: 429200
I1109 23:04:56.604511  7692 layer_factory.cpp:80] Creating layer rarm_conv2_relu
I1109 23:04:56.604511  7692 net.cpp:84] Creating Layer rarm_conv2_relu
I1109 23:04:56.604511  7692 net.cpp:406] rarm_conv2_relu <- rarm_conv2
I1109 23:04:56.604511  7692 net.cpp:367] rarm_conv2_relu -> rarm_conv2 (in-place)
I1109 23:04:56.604511  7692 net.cpp:122] Setting up rarm_conv2_relu
I1109 23:04:56.604511  7692 net.cpp:129] Top shape: 10 128 1 1 (1280)
I1109 23:04:56.604511  7692 net.cpp:137] Memory required for data: 434320
I1109 23:04:56.604511  7692 layer_factory.cpp:80] Creating layer rarm_conv3
I1109 23:04:56.604511  7692 net.cpp:84] Creating Layer rarm_conv3
I1109 23:04:56.604511  7692 net.cpp:406] rarm_conv3 <- rarm_conv2
I1109 23:04:56.604511  7692 net.cpp:380] rarm_conv3 -> rarm_conv3
I1109 23:04:56.604511  7692 net.cpp:122] Setting up rarm_conv3
I1109 23:04:56.604511  7692 net.cpp:129] Top shape: 10 128 1 1 (1280)
I1109 23:04:56.604511  7692 net.cpp:137] Memory required for data: 439440
I1109 23:04:56.604511  7692 layer_factory.cpp:80] Creating layer rarm_conv3_relu
I1109 23:04:56.604511  7692 net.cpp:84] Creating Layer rarm_conv3_relu
I1109 23:04:56.604511  7692 net.cpp:406] rarm_conv3_relu <- rarm_conv3
I1109 23:04:56.604511  7692 net.cpp:367] rarm_conv3_relu -> rarm_conv3 (in-place)
I1109 23:04:56.604511  7692 net.cpp:122] Setting up rarm_conv3_relu
I1109 23:04:56.604511  7692 net.cpp:129] Top shape: 10 128 1 1 (1280)
I1109 23:04:56.604511  7692 net.cpp:137] Memory required for data: 444560
I1109 23:04:56.604511  7692 layer_factory.cpp:80] Creating layer rarm_pred_3d_pose_root_base
I1109 23:04:56.604511  7692 net.cpp:84] Creating Layer rarm_pred_3d_pose_root_base
I1109 23:04:56.604511  7692 net.cpp:406] rarm_pred_3d_pose_root_base <- rarm_conv3
I1109 23:04:56.604511  7692 net.cpp:380] rarm_pred_3d_pose_root_base -> rarm_pred_3d_pose_root_base
I1109 23:04:56.604511  7692 net.cpp:122] Setting up rarm_pred_3d_pose_root_base
I1109 23:04:56.604511  7692 net.cpp:129] Top shape: 10 9 (90)
I1109 23:04:56.604511  7692 net.cpp:137] Memory required for data: 444920
I1109 23:04:56.604511  7692 layer_factory.cpp:80] Creating layer larm_conv1
I1109 23:04:56.604511  7692 net.cpp:84] Creating Layer larm_conv1
I1109 23:04:56.604511  7692 net.cpp:406] larm_conv1 <- larm_data
I1109 23:04:56.604511  7692 net.cpp:380] larm_conv1 -> larm_conv1
I1109 23:04:56.605509  7692 net.cpp:122] Setting up larm_conv1
I1109 23:04:56.605509  7692 net.cpp:129] Top shape: 10 64 1 1 (640)
I1109 23:04:56.605509  7692 net.cpp:137] Memory required for data: 447480
I1109 23:04:56.605509  7692 layer_factory.cpp:80] Creating layer larm_conv1_relu
I1109 23:04:56.605509  7692 net.cpp:84] Creating Layer larm_conv1_relu
I1109 23:04:56.605509  7692 net.cpp:406] larm_conv1_relu <- larm_conv1
I1109 23:04:56.605509  7692 net.cpp:367] larm_conv1_relu -> larm_conv1 (in-place)
I1109 23:04:56.605509  7692 net.cpp:122] Setting up larm_conv1_relu
I1109 23:04:56.605509  7692 net.cpp:129] Top shape: 10 64 1 1 (640)
I1109 23:04:56.605509  7692 net.cpp:137] Memory required for data: 450040
I1109 23:04:56.605509  7692 layer_factory.cpp:80] Creating layer larm_conv1c
I1109 23:04:56.605509  7692 net.cpp:84] Creating Layer larm_conv1c
I1109 23:04:56.605509  7692 net.cpp:406] larm_conv1c <- larm_conv1
I1109 23:04:56.605509  7692 net.cpp:406] larm_conv1c <- arm_conv4_arm_conv4_relu_0_split_1
I1109 23:04:56.605509  7692 net.cpp:380] larm_conv1c -> larm_conv1c
I1109 23:04:56.605509  7692 net.cpp:122] Setting up larm_conv1c
I1109 23:04:56.605509  7692 net.cpp:129] Top shape: 10 96 1 1 (960)
I1109 23:04:56.605509  7692 net.cpp:137] Memory required for data: 453880
I1109 23:04:56.605509  7692 layer_factory.cpp:80] Creating layer larm_conv2
I1109 23:04:56.605509  7692 net.cpp:84] Creating Layer larm_conv2
I1109 23:04:56.605509  7692 net.cpp:406] larm_conv2 <- larm_conv1c
I1109 23:04:56.605509  7692 net.cpp:380] larm_conv2 -> larm_conv2
I1109 23:04:56.605509  7692 net.cpp:122] Setting up larm_conv2
I1109 23:04:56.605509  7692 net.cpp:129] Top shape: 10 128 1 1 (1280)
I1109 23:04:56.605509  7692 net.cpp:137] Memory required for data: 459000
I1109 23:04:56.605509  7692 layer_factory.cpp:80] Creating layer larm_conv2_relu
I1109 23:04:56.605509  7692 net.cpp:84] Creating Layer larm_conv2_relu
I1109 23:04:56.605509  7692 net.cpp:406] larm_conv2_relu <- larm_conv2
I1109 23:04:56.605509  7692 net.cpp:367] larm_conv2_relu -> larm_conv2 (in-place)
I1109 23:04:56.605509  7692 net.cpp:122] Setting up larm_conv2_relu
I1109 23:04:56.605509  7692 net.cpp:129] Top shape: 10 128 1 1 (1280)
I1109 23:04:56.605509  7692 net.cpp:137] Memory required for data: 464120
I1109 23:04:56.605509  7692 layer_factory.cpp:80] Creating layer larm_conv3
I1109 23:04:56.605509  7692 net.cpp:84] Creating Layer larm_conv3
I1109 23:04:56.605509  7692 net.cpp:406] larm_conv3 <- larm_conv2
I1109 23:04:56.605509  7692 net.cpp:380] larm_conv3 -> larm_conv3
I1109 23:04:56.605509  7692 net.cpp:122] Setting up larm_conv3
I1109 23:04:56.605509  7692 net.cpp:129] Top shape: 10 128 1 1 (1280)
I1109 23:04:56.605509  7692 net.cpp:137] Memory required for data: 469240
I1109 23:04:56.605509  7692 layer_factory.cpp:80] Creating layer larm_conv3_relu
I1109 23:04:56.605509  7692 net.cpp:84] Creating Layer larm_conv3_relu
I1109 23:04:56.605509  7692 net.cpp:406] larm_conv3_relu <- larm_conv3
I1109 23:04:56.605509  7692 net.cpp:367] larm_conv3_relu -> larm_conv3 (in-place)
I1109 23:04:56.605509  7692 net.cpp:122] Setting up larm_conv3_relu
I1109 23:04:56.605509  7692 net.cpp:129] Top shape: 10 128 1 1 (1280)
I1109 23:04:56.605509  7692 net.cpp:137] Memory required for data: 474360
I1109 23:04:56.605509  7692 layer_factory.cpp:80] Creating layer larm_pred_3d_pose_root_base
I1109 23:04:56.605509  7692 net.cpp:84] Creating Layer larm_pred_3d_pose_root_base
I1109 23:04:56.605509  7692 net.cpp:406] larm_pred_3d_pose_root_base <- larm_conv3
I1109 23:04:56.605509  7692 net.cpp:380] larm_pred_3d_pose_root_base -> larm_pred_3d_pose_root_base
I1109 23:04:56.605509  7692 net.cpp:122] Setting up larm_pred_3d_pose_root_base
I1109 23:04:56.605509  7692 net.cpp:129] Top shape: 10 9 (90)
I1109 23:04:56.605509  7692 net.cpp:137] Memory required for data: 474720
I1109 23:04:56.606505  7692 layer_factory.cpp:80] Creating layer slice_torso_pred_3d_pose_root_base
I1109 23:04:56.606505  7692 net.cpp:84] Creating Layer slice_torso_pred_3d_pose_root_base
I1109 23:04:56.606505  7692 net.cpp:406] slice_torso_pred_3d_pose_root_base <- torso_pred_3d_pose_root_base
I1109 23:04:56.606505  7692 net.cpp:380] slice_torso_pred_3d_pose_root_base -> head_neck_rshoul_3d_pose_unscaled_root_x
…
I1109 23:04:56.606505  7692 net.cpp:380] slice_torso_pred_3d_pose_root_base -> lshoul_3d_pose_unscaled_root_z
I1109 23:04:56.606505  7692 net.cpp:380] slice_torso_pred_3d_pose_root_base -> rhip_3d_pose_unscaled_root_z
I1109 23:04:56.606505  7692 net.cpp:380] slice_torso_pred_3d_pose_root_base -> lhip_3d_pose_unscaled_root_z
I1109 23:04:56.606505  7692 net.cpp:380] slice_torso_pred_3d_pose_root_base -> pelvis_spine_head2_3d_pose_unscaled_root_z
I1109 23:04:56.606505  7692 net.cpp:380] slice_torso_pred_3d_pose_root_base -> pred_2d_to_3d_scale_root
I1109 23:04:56.607503  7692 net.cpp:122] Setting up slice_torso_pred_3d_pose_root_base
I1109 23:04:56.607503  7692 net.cpp:129] Top shape: 10 3 (30)
I1109 23:04:56.607503  7692 net.cpp:129] Top shape: 10 1 (10)
I1109 23:04:56.607503  7692 net.cpp:129] Top shape: 10 1 (10)
I1109 23:04:56.607503  7692 net.cpp:129] Top shape: 10 1 (10)
I1109 23:04:56.607503  7692 net.cpp:129] Top shape: 10 3 (30)
I1109 23:04:56.607503  7692 net.cpp:129] Top shape: 10 3 (30)
I1109 23:04:56.607503  7692 net.cpp:129] Top shape: 10 1 (10)
I1109 23:04:56.607503  7692 net.cpp:129] Top shape: 10 1 (10)
I1109 23:04:56.607503  7692 net.cpp:129] Top shape: 10 1 (10)
I1109 23:04:56.607503  7692 net.cpp:129] Top shape: 10 3 (30)
I1109 23:04:56.607503  7692 net.cpp:129] Top shape: 10 3 (30)
I1109 23:04:56.607503  7692 net.cpp:129] Top shape: 10 1 (10)
I1109 23:04:56.607503  7692 net.cpp:129] Top shape: 10 1 (10)
I1109 23:04:56.607503  7692 net.cpp:129] Top shape: 10 1 (10)
I1109 23:04:56.607503  7692 net.cpp:129] Top shape: 10 3 (30)
I1109 23:04:56.607503  7692 net.cpp:129] Top shape: 10 1 (10)
I1109 23:04:56.607503  7692 net.cpp:137] Memory required for data: 475840
I1109 23:04:56.607503  7692 layer_factory.cpp:80] Creating layer pred_2d_to_3d_scale_root_slice_torso_pred_3d_pose_root_base_15_split
I1109 23:04:56.607503  7692 net.cpp:84] Creating Layer pred_2d_to_3d_scale_root_slice_torso_pred_3d_pose_root_base_15_split
I1109 23:04:56.607503  7692 net.cpp:406] pred_2d_to_3d_scale_root_slice_torso_pred_3d_pose_root_base_15_split <- pred_2d_to_3d_scale_root
I1109 23:04:56.607503  7692 net.cpp:380] pred_2d_to_3d_scale_root_slice_torso_pred_3d_pose_root_base_15_split -> pred_2d_to_3d_scale_root_slice_torso_pred_3d_pose_root_base_15_split_0
I1109 23:04:56.607503  7692 net.cpp:380] pred_2d_to_3d_scale_root_slice_torso_pred_3d_pose_root_base_15_split -> pred_2d_to_3d_scale_root_slice_torso_pred_3d_pose_root_base_15_split_1
I1109 23:04:56.607503  7692 net.cpp:380] pred_2d_to_3d_scale_root_slice_torso_pred_3d_pose_root_base_15_split -> pred_2d_to_3d_scale_root_slice_torso_pred_3d_pose_root_base_15_split_2
I1109 23:04:56.607503  7692 net.cpp:122] Setting up pred_2d_to_3d_scale_root_slice_torso_pred_3d_pose_root_base_15_split
I1109 23:04:56.607503  7692 net.cpp:129] Top shape: 10 1 (10)
I1109 23:04:56.607503  7692 net.cpp:129] Top shape: 10 1 (10)
I1109 23:04:56.607503  7692 net.cpp:129] Top shape: 10 1 (10)
I1109 23:04:56.607503  7692 net.cpp:137] Memory required for data: 475960
I1109 23:04:56.607503  7692 layer_factory.cpp:80] Creating layer slice_rleg_pred_3d_pose_root_base
I1109 23:04:56.607503  7692 net.cpp:84] Creating Layer slice_rleg_pred_3d_pose_root_base
I1109 23:04:56.607503  7692 net.cpp:406] slice_rleg_pred_3d_pose_root_base <- rleg_pred_3d_pose_root_base
I1109 23:04:56.607503  7692 net.cpp:380] slice_rleg_pred_3d_pose_root_base -> rknee_ank_3d_pose_unscaled_root_x
I1109 23:04:56.607503  7692 net.cpp:380] slice_rleg_pred_3d_pose_root_base -> rfoot_3d_pose_unscaled_root_x
I1109 23:04:56.607503  7692 net.cpp:380] slice_rleg_pred_3d_pose_root_base -> rknee_ank_3d_pose_unscaled_root_y
I1109 23:04:56.607503  7692 net.cpp:380] slice_rleg_pred_3d_pose_root_base -> rfoot_3d_pose_unscaled_root_y
I1109 23:04:56.607503  7692 net.cpp:380] slice_rleg_pred_3d_pose_root_base -> rknee_ank_3d_pose_unscaled_root_z
I1109 23:04:56.607503  7692 net.cpp:380] slice_rleg_pred_3d_pose_root_base -> rfoot_3d_pose_unscaled_root_z
I1109 23:04:56.607503  7692 net.cpp:122] Setting up slice_rleg_pred_3d_pose_root_base
I1109 23:04:56.607503  7692 net.cpp:129] Top shape: 10 2 (20)
I1109 23:04:56.607503  7692 net.cpp:129] Top shape: 10 1 (10)
I1109 23:04:56.607503  7692 net.cpp:129] Top shape: 10 2 (20)
I1109 23:04:56.607503  7692 net.cpp:129] Top shape: 10 1 (10)
I1109 23:04:56.607503  7692 net.cpp:129] Top shape: 10 2 (20)
I1109 23:04:56.607503  7692 net.cpp:129] Top shape: 10 1 (10)
I1109 23:04:56.607503  7692 net.cpp:137] Memory required for data: 476320
I1109 23:04:56.607503  7692 layer_factory.cpp:80] Creating layer slice_lleg_pred_3d_pose_root_base
I1109 23:04:56.607503  7692 net.cpp:84] Creating Layer slice_lleg_pred_3d_pose_root_base
I1109 23:04:56.607503  7692 net.cpp:406] slice_lleg_pred_3d_pose_root_base <- lleg_pred_3d_pose_root_base
I1109 23:04:56.607503  7692 net.cpp:380] slice_lleg_pred_3d_pose_root_base -> lknee_ank_3d_pose_unscaled_root_x
I1109 23:04:56.607503  7692 net.cpp:380] slice_lleg_pred_3d_pose_root_base -> lfoot_3d_pose_unscaled_root_x
I1109 23:04:56.607503  7692 net.cpp:380] slice_lleg_pred_3d_pose_root_base -> lknee_ank_3d_pose_unscaled_root_y
I1109 23:04:56.607503  7692 net.cpp:380] slice_lleg_pred_3d_pose_root_base -> lfoot_3d_pose_unscaled_root_y
I1109 23:04:56.607503  7692 net.cpp:380] slice_lleg_pred_3d_pose_root_base -> lknee_ank_3d_pose_unscaled_root_z
I1109 23:04:56.607503  7692 net.cpp:380] slice_lleg_pred_3d_pose_root_base -> lfoot_3d_pose_unscaled_root_z
I1109 23:04:56.607503  7692 net.cpp:122] Setting up slice_lleg_pred_3d_pose_root_base
I1109 23:04:56.607503  7692 net.cpp:129] Top shape: 10 2 (20)
I1109 23:04:56.607503  7692 net.cpp:129] Top shape: 10 1 (10)
I1109 23:04:56.607503  7692 net.cpp:129] Top shape: 10 2 (20)
I1109 23:04:56.607503  7692 net.cpp:129] Top shape: 10 1 (10)
I1109 23:04:56.607503  7692 net.cpp:129] Top shape: 10 2 (20)
I1109 23:04:56.607503  7692 net.cpp:129] Top shape: 10 1 (10)
I1109 23:04:56.607503  7692 net.cpp:137] Memory required for data: 476680
I1109 23:04:56.607503  7692 layer_factory.cpp:80] Creating layer slice_rarm_pred_3d_pose_root_base
I1109 23:04:56.607503  7692 net.cpp:84] Creating Layer slice_rarm_pred_3d_pose_root_base
I1109 23:04:56.607503  7692 net.cpp:406] slice_rarm_pred_3d_pose_root_base <- rarm_pred_3d_pose_root_base
I1109 23:04:56.607503  7692 net.cpp:380] slice_rarm_pred_3d_pose_root_base -> relb_wr_3d_pose_unscaled_root_x
I1109 23:04:56.607503  7692 net.cpp:380] slice_rarm_pred_3d_pose_root_base -> rhand_3d_pose_unscaled_root_x
I1109 23:04:56.607503  7692 net.cpp:380] slice_rarm_pred_3d_pose_root_base -> relb_wr_3d_pose_unscaled_root_y
I1109 23:04:56.607503  7692 net.cpp:380] slice_rarm_pred_3d_pose_root_base -> rhand_3d_pose_unscaled_root_y
I1109 23:04:56.607503  7692 net.cpp:380] slice_rarm_pred_3d_pose_root_base -> relb_wr_3d_pose_unscaled_root_z
I1109 23:04:56.607503  7692 net.cpp:380] slice_rarm_pred_3d_pose_root_base -> rhand_3d_pose_unscaled_root_z
I1109 23:04:56.607503  7692 net.cpp:122] Setting up slice_rarm_pred_3d_pose_root_base
I1109 23:04:56.607503  7692 net.cpp:129] Top shape: 10 2 (20)
I1109 23:04:56.607503  7692 net.cpp:129] Top shape: 10 1 (10)
I1109 23:04:56.607503  7692 net.cpp:129] Top shape: 10 2 (20)
I1109 23:04:56.607503  7692 net.cpp:129] Top shape: 10 1 (10)
I1109 23:04:56.607503  7692 net.cpp:129] Top shape: 10 2 (20)
I1109 23:04:56.607503  7692 net.cpp:129] Top shape: 10 1 (10)
I1109 23:04:56.607503  7692 net.cpp:137] Memory required for data: 477040
I1109 23:04:56.607503  7692 layer_factory.cpp:80] Creating layer slice_larm_pred_3d_pose_root_base
I1109 23:04:56.607503  7692 net.cpp:84] Creating Layer slice_larm_pred_3d_pose_root_base
I1109 23:04:56.607503  7692 net.cpp:406] slice_larm_pred_3d_pose_root_base <- larm_pred_3d_pose_root_base
I1109 23:04:56.607503  7692 net.cpp:380] slice_larm_pred_3d_pose_root_base -> lelb_wr_3d_pose_unscaled_root_x
I1109 23:04:56.608500  7692 net.cpp:380] slice_larm_pred_3d_pose_root_base -> lhand_3d_pose_unscaled_root_x
I1109 23:04:56.608500  7692 net.cpp:380] slice_larm_pred_3d_pose_root_base -> lelb_wr_3d_pose_unscaled_root_y
I1109 23:04:56.608500  7692 net.cpp:380] slice_larm_pred_3d_pose_root_base -> lhand_3d_pose_unscaled_root_y
I1109 23:04:56.608500  7692 net.cpp:380] slice_larm_pred_3d_pose_root_base -> lelb_wr_3d_pose_unscaled_root_z
I1109 23:04:56.608500  7692 net.cpp:380] slice_larm_pred_3d_pose_root_base -> lhand_3d_pose_unscaled_root_z
I1109 23:04:56.608500  7692 net.cpp:122] Setting up slice_larm_pred_3d_pose_root_base
I1109 23:04:56.608500  7692 net.cpp:129] Top shape: 10 2 (20)
I1109 23:04:56.608500  7692 net.cpp:129] Top shape: 10 1 (10)
I1109 23:04:56.608500  7692 net.cpp:129] Top shape: 10 2 (20)
I1109 23:04:56.608500  7692 net.cpp:129] Top shape: 10 1 (10)
I1109 23:04:56.608500  7692 net.cpp:129] Top shape: 10 2 (20)
I1109 23:04:56.608500  7692 net.cpp:129] Top shape: 10 1 (10)
I1109 23:04:56.608500  7692 net.cpp:137] Memory required for data: 477400
I1109 23:04:56.608500  7692 layer_factory.cpp:80] Creating layer concat_outputs
I1109 23:04:56.608500  7692 net.cpp:84] Creating Layer concat_outputs
I1109 23:04:56.608500  7692 net.cpp:406] concat_outputs <- head_neck_rshoul_3d_pose_unscaled_root_x
I1109 23:04:56.608500  7692 net.cpp:406] concat_outputs <- relb_wr_3d_pose_unscaled_root_x
…
I1109 23:04:56.608500  7692 net.cpp:406] concat_outputs <- pelvis_spine_head2_3d_pose_unscaled_root_z
I1109 23:04:56.608500  7692 net.cpp:406] concat_outputs <- rhand_3d_pose_unscaled_root_z
I1109 23:04:56.608500  7692 net.cpp:406] concat_outputs <- lhand_3d_pose_unscaled_root_z
I1109 23:04:56.608500  7692 net.cpp:406] concat_outputs <- rfoot_3d_pose_unscaled_root_z
I1109 23:04:56.608500  7692 net.cpp:406] concat_outputs <- lfoot_3d_pose_unscaled_root_z
I1109 23:04:56.608500  7692 net.cpp:380] concat_outputs -> pred_3d_pose_unscaled_root
I1109 23:04:56.608500  7692 net.cpp:122] Setting up concat_outputs
I1109 23:04:56.608500  7692 net.cpp:129] Top shape: 10 63 (630)
I1109 23:04:56.608500  7692 net.cpp:137] Memory required for data: 479920
I1109 23:04:56.608500  7692 layer_factory.cpp:80] Creating layer pred_scale_tiled_root
I1109 23:04:56.608500  7692 net.cpp:84] Creating Layer pred_scale_tiled_root
I1109 23:04:56.608500  7692 net.cpp:406] pred_scale_tiled_root <- pred_2d_to_3d_scale_root_slice_torso_pred_3d_pose_root_base_15_split_0
I1109 23:04:56.608500  7692 net.cpp:380] pred_scale_tiled_root -> pred_scale_tiled_root
I1109 23:04:56.608500  7692 net.cpp:122] Setting up pred_scale_tiled_root
I1109 23:04:56.608500  7692 net.cpp:129] Top shape: 10 63 (630)
I1109 23:04:56.608500  7692 net.cpp:137] Memory required for data: 482440
I1109 23:04:56.608500  7692 layer_factory.cpp:80] Creating layer pred_3d_pose_root
I1109 23:04:56.608500  7692 net.cpp:84] Creating Layer pred_3d_pose_root
I1109 23:04:56.608500  7692 net.cpp:406] pred_3d_pose_root <- pred_scale_tiled_root
I1109 23:04:56.608500  7692 net.cpp:406] pred_3d_pose_root <- pred_3d_pose_unscaled_root
I1109 23:04:56.608500  7692 net.cpp:380] pred_3d_pose_root -> pred_3d_pose_root
I1109 23:04:56.608500  7692 net.cpp:122] Setting up pred_3d_pose_root
I1109 23:04:56.608500  7692 net.cpp:129] Top shape: 10 63 (630)
I1109 23:04:56.608500  7692 net.cpp:137] Memory required for data: 484960
I1109 23:04:56.608500  7692 layer_factory.cpp:80] Creating layer pred_3d_pose_root_pred_3d_pose_root_0_split
I1109 23:04:56.608500  7692 net.cpp:84] Creating Layer pred_3d_pose_root_pred_3d_pose_root_0_split
I1109 23:04:56.608500  7692 net.cpp:406] pred_3d_pose_root_pred_3d_pose_root_0_split <- pred_3d_pose_root
I1109 23:04:56.608500  7692 net.cpp:380] pred_3d_pose_root_pred_3d_pose_root_0_split -> pred_3d_pose_root_pred_3d_pose_root_0_split_0
I1109 23:04:56.608500  7692 net.cpp:380] pred_3d_pose_root_pred_3d_pose_root_0_split -> pred_3d_pose_root_pred_3d_pose_root_0_split_1
I1109 23:04:56.608500  7692 net.cpp:122] Setting up pred_3d_pose_root_pred_3d_pose_root_0_split
I1109 23:04:56.608500  7692 net.cpp:129] Top shape: 10 63 (630)
I1109 23:04:56.608500  7692 net.cpp:129] Top shape: 10 63 (630)
I1109 23:04:56.608500  7692 net.cpp:137] Memory required for data: 490000
I1109 23:04:56.608500  7692 layer_factory.cpp:80] Creating layer concat_3d_pose_and_scale_root
I1109 23:04:56.608500  7692 net.cpp:84] Creating Layer concat_3d_pose_and_scale_root
I1109 23:04:56.608500  7692 net.cpp:406] concat_3d_pose_and_scale_root <- pred_3d_pose_root_pred_3d_pose_root_0_split_0
I1109 23:04:56.608500  7692 net.cpp:406] concat_3d_pose_and_scale_root <- pred_2d_to_3d_scale_root_slice_torso_pred_3d_pose_root_base_15_split_1
I1109 23:04:56.608500  7692 net.cpp:380] concat_3d_pose_and_scale_root -> pred_3d_pose_scale_root_partwise
I1109 23:04:56.608500  7692 net.cpp:122] Setting up concat_3d_pose_and_scale_root
I1109 23:04:56.608500  7692 net.cpp:129] Top shape: 10 64 (640)
I1109 23:04:56.608500  7692 net.cpp:137] Memory required for data: 492560
I1109 23:04:56.608500  7692 layer_factory.cpp:80] Creating layer conv1_full
I1109 23:04:56.608500  7692 net.cpp:84] Creating Layer conv1_full
I1109 23:04:56.608500  7692 net.cpp:406] conv1_full <- data_input_0_split_2
I1109 23:04:56.608500  7692 net.cpp:380] conv1_full -> conv1_full
I1109 23:04:56.609498  7692 net.cpp:122] Setting up conv1_full
I1109 23:04:56.609498  7692 net.cpp:129] Top shape: 10 160 1 1 (1600)
I1109 23:04:56.609498  7692 net.cpp:137] Memory required for data: 498960
I1109 23:04:56.609498  7692 layer_factory.cpp:80] Creating layer conv1_relu_full
I1109 23:04:56.609498  7692 net.cpp:84] Creating Layer conv1_relu_full
I1109 23:04:56.609498  7692 net.cpp:406] conv1_relu_full <- conv1_full
I1109 23:04:56.609498  7692 net.cpp:367] conv1_relu_full -> conv1_full (in-place)
I1109 23:04:56.609498  7692 net.cpp:122] Setting up conv1_relu_full
I1109 23:04:56.609498  7692 net.cpp:129] Top shape: 10 160 1 1 (1600)
I1109 23:04:56.609498  7692 net.cpp:137] Memory required for data: 505360
I1109 23:04:56.609498  7692 layer_factory.cpp:80] Creating layer conv2_full
I1109 23:04:56.609498  7692 net.cpp:84] Creating Layer conv2_full
I1109 23:04:56.609498  7692 net.cpp:406] conv2_full <- conv1_full
I1109 23:04:56.609498  7692 net.cpp:380] conv2_full -> conv2_full
I1109 23:04:56.609498  7692 net.cpp:122] Setting up conv2_full
I1109 23:04:56.610496  7692 net.cpp:129] Top shape: 10 256 1 1 (2560)
I1109 23:04:56.610496  7692 net.cpp:137] Memory required for data: 515600
I1109 23:04:56.610496  7692 layer_factory.cpp:80] Creating layer conv2_relu_full
I1109 23:04:56.610496  7692 net.cpp:84] Creating Layer conv2_relu_full
I1109 23:04:56.610496  7692 net.cpp:406] conv2_relu_full <- conv2_full
I1109 23:04:56.610496  7692 net.cpp:367] conv2_relu_full -> conv2_full (in-place)
I1109 23:04:56.610496  7692 net.cpp:122] Setting up conv2_relu_full
I1109 23:04:56.610496  7692 net.cpp:129] Top shape: 10 256 1 1 (2560)
I1109 23:04:56.610496  7692 net.cpp:137] Memory required for data: 525840
I1109 23:04:56.610496  7692 layer_factory.cpp:80] Creating layer conv3_full
I1109 23:04:56.610496  7692 net.cpp:84] Creating Layer conv3_full
I1109 23:04:56.610496  7692 net.cpp:406] conv3_full <- conv2_full
I1109 23:04:56.610496  7692 net.cpp:380] conv3_full -> conv3_full
I1109 23:04:56.610496  7692 net.cpp:122] Setting up conv3_full
I1109 23:04:56.610496  7692 net.cpp:129] Top shape: 10 256 1 1 (2560)
I1109 23:04:56.610496  7692 net.cpp:137] Memory required for data: 536080
I1109 23:04:56.610496  7692 layer_factory.cpp:80] Creating layer conv3_relu_full
I1109 23:04:56.610496  7692 net.cpp:84] Creating Layer conv3_relu_full
I1109 23:04:56.610496  7692 net.cpp:406] conv3_relu_full <- conv3_full
I1109 23:04:56.610496  7692 net.cpp:367] conv3_relu_full -> conv3_full (in-place)
I1109 23:04:56.610496  7692 net.cpp:122] Setting up conv3_relu_full
I1109 23:04:56.610496  7692 net.cpp:129] Top shape: 10 256 1 1 (2560)
I1109 23:04:56.610496  7692 net.cpp:137] Memory required for data: 546320
I1109 23:04:56.610496  7692 layer_factory.cpp:80] Creating layer conv4_full
I1109 23:04:56.610496  7692 net.cpp:84] Creating Layer conv4_full
I1109 23:04:56.610496  7692 net.cpp:406] conv4_full <- conv3_full
I1109 23:04:56.610496  7692 net.cpp:380] conv4_full -> conv4_full
I1109 23:04:56.610496  7692 net.cpp:122] Setting up conv4_full
I1109 23:04:56.611492  7692 net.cpp:129] Top shape: 10 128 1 1 (1280)
I1109 23:04:56.611492  7692 net.cpp:137] Memory required for data: 551440
I1109 23:04:56.611492  7692 layer_factory.cpp:80] Creating layer conv4_relu_full
I1109 23:04:56.611492  7692 net.cpp:84] Creating Layer conv4_relu_full
I1109 23:04:56.611492  7692 net.cpp:406] conv4_relu_full <- conv4_full
I1109 23:04:56.611492  7692 net.cpp:367] conv4_relu_full -> conv4_full (in-place)
I1109 23:04:56.611492  7692 net.cpp:122] Setting up conv4_relu_full
I1109 23:04:56.611492  7692 net.cpp:129] Top shape: 10 128 1 1 (1280)
I1109 23:04:56.611492  7692 net.cpp:137] Memory required for data: 556560
I1109 23:04:56.611492  7692 layer_factory.cpp:80] Creating layer full_pred_3d_pose_root_base
I1109 23:04:56.611492  7692 net.cpp:84] Creating Layer full_pred_3d_pose_root_base
I1109 23:04:56.611492  7692 net.cpp:406] full_pred_3d_pose_root_base <- conv4_full
I1109 23:04:56.611492  7692 net.cpp:380] full_pred_3d_pose_root_base -> full_pred_3d_pose_root_base
I1109 23:04:56.611492  7692 net.cpp:122] Setting up full_pred_3d_pose_root_base
I1109 23:04:56.611492  7692 net.cpp:129] Top shape: 10 64 (640)
I1109 23:04:56.611492  7692 net.cpp:137] Memory required for data: 559120
I1109 23:04:56.611492  7692 layer_factory.cpp:80] Creating layer slice_full_pred_3d_pose_root_base
I1109 23:04:56.611492  7692 net.cpp:84] Creating Layer slice_full_pred_3d_pose_root_base
I1109 23:04:56.611492  7692 net.cpp:406] slice_full_pred_3d_pose_root_base <- full_pred_3d_pose_root_base
I1109 23:04:56.611492  7692 net.cpp:380] slice_full_pred_3d_pose_root_base -> full_pred_3d_pose_unscaled_root
I1109 23:04:56.611492  7692 net.cpp:380] slice_full_pred_3d_pose_root_base -> full_pred_2d_to_3d_scale_root
I1109 23:04:56.611492  7692 net.cpp:122] Setting up slice_full_pred_3d_pose_root_base
I1109 23:04:56.611492  7692 net.cpp:129] Top shape: 10 63 (630)
I1109 23:04:56.611492  7692 net.cpp:129] Top shape: 10 1 (10)
I1109 23:04:56.611492  7692 net.cpp:137] Memory required for data: 561680
I1109 23:04:56.611492  7692 layer_factory.cpp:80] Creating layer full_pred_2d_to_3d_scale_root_slice_full_pred_3d_pose_root_base_1_split
I1109 23:04:56.611492  7692 net.cpp:84] Creating Layer full_pred_2d_to_3d_scale_root_slice_full_pred_3d_pose_root_base_1_split
I1109 23:04:56.611492  7692 net.cpp:406] full_pred_2d_to_3d_scale_root_slice_full_pred_3d_pose_root_base_1_split <- full_pred_2d_to_3d_scale_root
I1109 23:04:56.611492  7692 net.cpp:380] full_pred_2d_to_3d_scale_root_slice_full_pred_3d_pose_root_base_1_split -> full_pred_2d_to_3d_scale_root_slice_full_pred_3d_pose_root_base_1_split_0
I1109 23:04:56.611492  7692 net.cpp:380] full_pred_2d_to_3d_scale_root_slice_full_pred_3d_pose_root_base_1_split -> full_pred_2d_to_3d_scale_root_slice_full_pred_3d_pose_root_base_1_split_1
I1109 23:04:56.611492  7692 net.cpp:122] Setting up full_pred_2d_to_3d_scale_root_slice_full_pred_3d_pose_root_base_1_split
I1109 23:04:56.611492  7692 net.cpp:129] Top shape: 10 1 (10)
I1109 23:04:56.611492  7692 net.cpp:129] Top shape: 10 1 (10)
I1109 23:04:56.611492  7692 net.cpp:137] Memory required for data: 561760
I1109 23:04:56.611492  7692 layer_factory.cpp:80] Creating layer full_pred_scale_tiled_root
I1109 23:04:56.611492  7692 net.cpp:84] Creating Layer full_pred_scale_tiled_root
I1109 23:04:56.611492  7692 net.cpp:406] full_pred_scale_tiled_root <- full_pred_2d_to_3d_scale_root_slice_full_pred_3d_pose_root_base_1_split_0
I1109 23:04:56.611492  7692 net.cpp:380] full_pred_scale_tiled_root -> full_pred_scale_tiled_root
I1109 23:04:56.611492  7692 net.cpp:122] Setting up full_pred_scale_tiled_root
I1109 23:04:56.611492  7692 net.cpp:129] Top shape: 10 63 (630)
I1109 23:04:56.611492  7692 net.cpp:137] Memory required for data: 564280
I1109 23:04:56.611492  7692 layer_factory.cpp:80] Creating layer full_pred_3d_pose_root
I1109 23:04:56.611492  7692 net.cpp:84] Creating Layer full_pred_3d_pose_root
I1109 23:04:56.611492  7692 net.cpp:406] full_pred_3d_pose_root <- full_pred_scale_tiled_root
I1109 23:04:56.611492  7692 net.cpp:406] full_pred_3d_pose_root <- full_pred_3d_pose_unscaled_root
I1109 23:04:56.611492  7692 net.cpp:380] full_pred_3d_pose_root -> full_pred_3d_pose_root
I1109 23:04:56.611492  7692 net.cpp:122] Setting up full_pred_3d_pose_root
I1109 23:04:56.611492  7692 net.cpp:129] Top shape: 10 63 (630)
I1109 23:04:56.611492  7692 net.cpp:137] Memory required for data: 566800
I1109 23:04:56.611492  7692 layer_factory.cpp:80] Creating layer full_pred_3d_pose_root_full_pred_3d_pose_root_0_split
I1109 23:04:56.611492  7692 net.cpp:84] Creating Layer full_pred_3d_pose_root_full_pred_3d_pose_root_0_split
I1109 23:04:56.611492  7692 net.cpp:406] full_pred_3d_pose_root_full_pred_3d_pose_root_0_split <- full_pred_3d_pose_root
I1109 23:04:56.611492  7692 net.cpp:380] full_pred_3d_pose_root_full_pred_3d_pose_root_0_split -> full_pred_3d_pose_root_full_pred_3d_pose_root_0_split_0
I1109 23:04:56.611492  7692 net.cpp:380] full_pred_3d_pose_root_full_pred_3d_pose_root_0_split -> full_pred_3d_pose_root_full_pred_3d_pose_root_0_split_1
I1109 23:04:56.611492  7692 net.cpp:122] Setting up full_pred_3d_pose_root_full_pred_3d_pose_root_0_split
I1109 23:04:56.611492  7692 net.cpp:129] Top shape: 10 63 (630)
I1109 23:04:56.611492  7692 net.cpp:129] Top shape: 10 63 (630)
I1109 23:04:56.611492  7692 net.cpp:137] Memory required for data: 571840
I1109 23:04:56.611492  7692 layer_factory.cpp:80] Creating layer concat_full_3d_pose_and_scale_root
I1109 23:04:56.611492  7692 net.cpp:84] Creating Layer concat_full_3d_pose_and_scale_root
I1109 23:04:56.611492  7692 net.cpp:406] concat_full_3d_pose_and_scale_root <- full_pred_3d_pose_root_full_pred_3d_pose_root_0_split_0
I1109 23:04:56.611492  7692 net.cpp:406] concat_full_3d_pose_and_scale_root <- full_pred_2d_to_3d_scale_root_slice_full_pred_3d_pose_root_base_1_split_1
I1109 23:04:56.611492  7692 net.cpp:380] concat_full_3d_pose_and_scale_root -> pred_3d_pose_scale_root_full
I1109 23:04:56.611492  7692 net.cpp:122] Setting up concat_full_3d_pose_and_scale_root
I1109 23:04:56.611492  7692 net.cpp:129] Top shape: 10 64 (640)
I1109 23:04:56.611492  7692 net.cpp:137] Memory required for data: 574400
I1109 23:04:56.611492  7692 layer_factory.cpp:80] Creating layer conv1_vis
I1109 23:04:56.611492  7692 net.cpp:84] Creating Layer conv1_vis
I1109 23:04:56.611492  7692 net.cpp:406] conv1_vis <- vis_2d
I1109 23:04:56.611492  7692 net.cpp:380] conv1_vis -> conv1_vis
I1109 23:04:56.611492  7692 net.cpp:122] Setting up conv1_vis
I1109 23:04:56.611492  7692 net.cpp:129] Top shape: 10 96 1 1 (960)
I1109 23:04:56.611492  7692 net.cpp:137] Memory required for data: 578240
I1109 23:04:56.611492  7692 layer_factory.cpp:80] Creating layer conv1_relu_vis
I1109 23:04:56.611492  7692 net.cpp:84] Creating Layer conv1_relu_vis
I1109 23:04:56.611492  7692 net.cpp:406] conv1_relu_vis <- conv1_vis
I1109 23:04:56.611492  7692 net.cpp:367] conv1_relu_vis -> conv1_vis (in-place)
I1109 23:04:56.611492  7692 net.cpp:122] Setting up conv1_relu_vis
I1109 23:04:56.611492  7692 net.cpp:129] Top shape: 10 96 1 1 (960)
I1109 23:04:56.611492  7692 net.cpp:137] Memory required for data: 582080
I1109 23:04:56.611492  7692 layer_factory.cpp:80] Creating layer conv2_vis
I1109 23:04:56.611492  7692 net.cpp:84] Creating Layer conv2_vis
I1109 23:04:56.611492  7692 net.cpp:406] conv2_vis <- conv1_vis
I1109 23:04:56.612489  7692 net.cpp:380] conv2_vis -> conv2_vis
I1109 23:04:56.612489  7692 net.cpp:122] Setting up conv2_vis
I1109 23:04:56.612489  7692 net.cpp:129] Top shape: 10 128 1 1 (1280)
I1109 23:04:56.612489  7692 net.cpp:137] Memory required for data: 587200
I1109 23:04:56.612489  7692 layer_factory.cpp:80] Creating layer conv2_relu_vis
I1109 23:04:56.612489  7692 net.cpp:84] Creating Layer conv2_relu_vis
I1109 23:04:56.612489  7692 net.cpp:406] conv2_relu_vis <- conv2_vis
I1109 23:04:56.612489  7692 net.cpp:367] conv2_relu_vis -> conv2_vis (in-place)
I1109 23:04:56.612489  7692 net.cpp:122] Setting up conv2_relu_vis
I1109 23:04:56.612489  7692 net.cpp:129] Top shape: 10 128 1 1 (1280)
I1109 23:04:56.612489  7692 net.cpp:137] Memory required for data: 592320
I1109 23:04:56.612489  7692 layer_factory.cpp:80] Creating layer conv3_vis
I1109 23:04:56.612489  7692 net.cpp:84] Creating Layer conv3_vis
I1109 23:04:56.612489  7692 net.cpp:406] conv3_vis <- conv2_vis
I1109 23:04:56.612489  7692 net.cpp:380] conv3_vis -> conv3_vis
I1109 23:04:56.612489  7692 net.cpp:122] Setting up conv3_vis
I1109 23:04:56.612489  7692 net.cpp:129] Top shape: 10 128 1 1 (1280)
I1109 23:04:56.612489  7692 net.cpp:137] Memory required for data: 597440
I1109 23:04:56.612489  7692 layer_factory.cpp:80] Creating layer conv3_relu_vis
I1109 23:04:56.612489  7692 net.cpp:84] Creating Layer conv3_relu_vis
I1109 23:04:56.612489  7692 net.cpp:406] conv3_relu_vis <- conv3_vis
I1109 23:04:56.612489  7692 net.cpp:367] conv3_relu_vis -> conv3_vis (in-place)
I1109 23:04:56.612489  7692 net.cpp:122] Setting up conv3_relu_vis
I1109 23:04:56.612489  7692 net.cpp:129] Top shape: 10 128 1 1 (1280)
I1109 23:04:56.612489  7692 net.cpp:137] Memory required for data: 602560
I1109 23:04:56.612489  7692 layer_factory.cpp:80] Creating layer per_joint_selector_a
I1109 23:04:56.612489  7692 net.cpp:84] Creating Layer per_joint_selector_a
I1109 23:04:56.612489  7692 net.cpp:406] per_joint_selector_a <- conv3_vis
I1109 23:04:56.612489  7692 net.cpp:380] per_joint_selector_a -> per_joint_selector_a
I1109 23:04:56.612489  7692 net.cpp:122] Setting up per_joint_selector_a
I1109 23:04:56.612489  7692 net.cpp:129] Top shape: 10 21 (210)
I1109 23:04:56.612489  7692 net.cpp:137] Memory required for data: 603400
I1109 23:04:56.612489  7692 layer_factory.cpp:80] Creating layer per_joint_selector_sigmoid
I1109 23:04:56.612489  7692 net.cpp:84] Creating Layer per_joint_selector_sigmoid
I1109 23:04:56.612489  7692 net.cpp:406] per_joint_selector_sigmoid <- per_joint_selector_a
I1109 23:04:56.612489  7692 net.cpp:367] per_joint_selector_sigmoid -> per_joint_selector_a (in-place)
I1109 23:04:56.612489  7692 net.cpp:122] Setting up per_joint_selector_sigmoid
I1109 23:04:56.612489  7692 net.cpp:129] Top shape: 10 21 (210)
I1109 23:04:56.612489  7692 net.cpp:137] Memory required for data: 604240
I1109 23:04:56.612489  7692 layer_factory.cpp:80] Creating layer per_joint_selector_a_per_joint_selector_sigmoid_0_split
I1109 23:04:56.612489  7692 net.cpp:84] Creating Layer per_joint_selector_a_per_joint_selector_sigmoid_0_split
I1109 23:04:56.612489  7692 net.cpp:406] per_joint_selector_a_per_joint_selector_sigmoid_0_split <- per_joint_selector_a
I1109 23:04:56.612489  7692 net.cpp:380] per_joint_selector_a_per_joint_selector_sigmoid_0_split -> per_joint_selector_a_per_joint_selector_sigmoid_0_split_0
I1109 23:04:56.612489  7692 net.cpp:380] per_joint_selector_a_per_joint_selector_sigmoid_0_split -> per_joint_selector_a_per_joint_selector_sigmoid_0_split_1
I1109 23:04:56.612489  7692 net.cpp:122] Setting up per_joint_selector_a_per_joint_selector_sigmoid_0_split
I1109 23:04:56.612489  7692 net.cpp:129] Top shape: 10 21 (210)
I1109 23:04:56.612489  7692 net.cpp:129] Top shape: 10 21 (210)
I1109 23:04:56.612489  7692 net.cpp:137] Memory required for data: 605920
I1109 23:04:56.612489  7692 layer_factory.cpp:80] Creating layer per_joint_selector_invert
I1109 23:04:56.612489  7692 net.cpp:84] Creating Layer per_joint_selector_invert
I1109 23:04:56.612489  7692 net.cpp:406] per_joint_selector_invert <- per_joint_selector_a_per_joint_selector_sigmoid_0_split_0
I1109 23:04:56.612489  7692 net.cpp:380] per_joint_selector_invert -> per_joint_selector_b
I1109 23:04:56.612489  7692 net.cpp:122] Setting up per_joint_selector_invert
I1109 23:04:56.612489  7692 net.cpp:129] Top shape: 10 21 (210)
I1109 23:04:56.612489  7692 net.cpp:137] Memory required for data: 606760
I1109 23:04:56.612489  7692 layer_factory.cpp:80] Creating layer per_joint_selector_a_XYZ
I1109 23:04:56.612489  7692 net.cpp:84] Creating Layer per_joint_selector_a_XYZ
I1109 23:04:56.612489  7692 net.cpp:406] per_joint_selector_a_XYZ <- per_joint_selector_a_per_joint_selector_sigmoid_0_split_1
I1109 23:04:56.612489  7692 net.cpp:380] per_joint_selector_a_XYZ -> per_joint_selector_a_XYZ
I1109 23:04:56.612489  7692 net.cpp:122] Setting up per_joint_selector_a_XYZ
I1109 23:04:56.612489  7692 net.cpp:129] Top shape: 10 63 (630)
I1109 23:04:56.612489  7692 net.cpp:137] Memory required for data: 609280
I1109 23:04:56.612489  7692 layer_factory.cpp:80] Creating layer per_joint_selector_b_XYZ
I1109 23:04:56.612489  7692 net.cpp:84] Creating Layer per_joint_selector_b_XYZ
I1109 23:04:56.612489  7692 net.cpp:406] per_joint_selector_b_XYZ <- per_joint_selector_b
I1109 23:04:56.612489  7692 net.cpp:380] per_joint_selector_b_XYZ -> per_joint_selector_b_XYZ
I1109 23:04:56.613487  7692 net.cpp:122] Setting up per_joint_selector_b_XYZ
I1109 23:04:56.613487  7692 net.cpp:129] Top shape: 10 63 (630)
I1109 23:04:56.613487  7692 net.cpp:137] Memory required for data: 611800
I1109 23:04:56.613487  7692 layer_factory.cpp:80] Creating layer final_pred_3d_pose_root_b
I1109 23:04:56.613487  7692 net.cpp:84] Creating Layer final_pred_3d_pose_root_b
I1109 23:04:56.613487  7692 net.cpp:406] final_pred_3d_pose_root_b <- per_joint_selector_b_XYZ
I1109 23:04:56.613487  7692 net.cpp:406] final_pred_3d_pose_root_b <- full_pred_3d_pose_root_full_pred_3d_pose_root_0_split_1
I1109 23:04:56.613487  7692 net.cpp:380] final_pred_3d_pose_root_b -> final_pred_3d_pose_root_b
I1109 23:04:56.613487  7692 net.cpp:122] Setting up final_pred_3d_pose_root_b
I1109 23:04:56.613487  7692 net.cpp:129] Top shape: 10 63 (630)
I1109 23:04:56.613487  7692 net.cpp:137] Memory required for data: 614320
I1109 23:04:56.613487  7692 layer_factory.cpp:80] Creating layer final_pred_3d_pose_root_a
I1109 23:04:56.613487  7692 net.cpp:84] Creating Layer final_pred_3d_pose_root_a
I1109 23:04:56.613487  7692 net.cpp:406] final_pred_3d_pose_root_a <- per_joint_selector_a_XYZ
I1109 23:04:56.613487  7692 net.cpp:406] final_pred_3d_pose_root_a <- pred_3d_pose_root_pred_3d_pose_root_0_split_1
I1109 23:04:56.613487  7692 net.cpp:380] final_pred_3d_pose_root_a -> final_pred_3d_pose_root_a
I1109 23:04:56.613487  7692 net.cpp:122] Setting up final_pred_3d_pose_root_a
I1109 23:04:56.613487  7692 net.cpp:129] Top shape: 10 63 (630)
I1109 23:04:56.613487  7692 net.cpp:137] Memory required for data: 616840
I1109 23:04:56.613487  7692 layer_factory.cpp:80] Creating layer final_pred_3d_pose_root
I1109 23:04:56.613487  7692 net.cpp:84] Creating Layer final_pred_3d_pose_root
I1109 23:04:56.613487  7692 net.cpp:406] final_pred_3d_pose_root <- final_pred_3d_pose_root_a
I1109 23:04:56.613487  7692 net.cpp:406] final_pred_3d_pose_root <- final_pred_3d_pose_root_b
I1109 23:04:56.613487  7692 net.cpp:380] final_pred_3d_pose_root -> final_pred_3d_pose_root
I1109 23:04:56.613487  7692 net.cpp:122] Setting up final_pred_3d_pose_root
I1109 23:04:56.613487  7692 net.cpp:129] Top shape: 10 63 (630)
I1109 23:04:56.613487  7692 net.cpp:137] Memory required for data: 619360
I1109 23:04:56.613487  7692 layer_factory.cpp:80] Creating layer concat_3d_pose_and_scale_root
I1109 23:04:56.613487  7692 net.cpp:84] Creating Layer concat_3d_pose_and_scale_root
I1109 23:04:56.613487  7692 net.cpp:406] concat_3d_pose_and_scale_root <- final_pred_3d_pose_root
I1109 23:04:56.613487  7692 net.cpp:406] concat_3d_pose_and_scale_root <- pred_2d_to_3d_scale_root_slice_torso_pred_3d_pose_root_base_15_split_2
I1109 23:04:56.613487  7692 net.cpp:380] concat_3d_pose_and_scale_root -> pred_3d_pose_scale_root
I1109 23:04:56.613487  7692 net.cpp:122] Setting up concat_3d_pose_and_scale_root
I1109 23:04:56.613487  7692 net.cpp:129] Top shape: 10 64 (640)
I1109 23:04:56.613487  7692 net.cpp:137] Memory required for data: 621920
I1109 23:04:56.613487  7692 layer_factory.cpp:80] Creating layer silence_feat
I1109 23:04:56.613487  7692 net.cpp:84] Creating Layer silence_feat
I1109 23:04:56.613487  7692 net.cpp:406] silence_feat <- pred_3d_pose_scale_root_partwise
I1109 23:04:56.613487  7692 net.cpp:406] silence_feat <- pred_3d_pose_scale_root_full
…
